Going_modular/models/05_going_modular_script_mode_tinyvgg_model.pth (torch, 37218 bytes, 10 tensors)

conv_block_1.0.weight f4 [10, 3, 3, 3]
0	0x3e2189b2	0.15775183
1	0x3e2f32f8	0.17109287
2	0xbd07e748	-0.03317955
3	0x3e3f3d0f	0.18675636
4	0xbd028b5b	-0.03187118
5	0x3d49e8e4	0.049294367
6	0xbdac67a8	-0.08418208
7	0x3dfadb31	0.12248839
8	0x3e376b97	0.17912136
9	0xbe0a6c8c	-0.1351797
10	0x3e32a562	0.17445901
11	0x3d32b017	0.043624964
12	0x3e172656	0.14760718
13	0x3d04ac71	0.032391015
14	0x3dcaeb72	0.09908189
15	0xbcb4f950	-0.022091538
16	0x3e1da0bd	0.15393348
17	0x3d09435a	0.033511497
18	0xbda826cc	-0.08210525
19	0x3d6f0ca6	0.058361672
20	0xbda17d03	-0.07885172
21	0xbc8108d4	-0.01575128
22	0xbd8f447a	-0.06995483
23	0x3e0b11fb	0.13581078
24	0xbe15208c	-0.14563197
25	0xbda70556	-0.081553146
26	0xbd441931	-0.047875587
27	0xbe02f962	-0.12790444
28	0x3b84982f	0.004046462
29	0xbe53b133	-0.20673065
30	0x3e26d89a	0.16293564
31	0xbe337dd4	-0.17528468
32	0x3e0b660f	0.13613151
33	0x3cab4e7b	0.020911446
34	0xbd94cda1	-0.07265783
35	0x3ddcd33e	0.10782479
36	0x3caa12fe	0.02076101
37	0x3e11c005	0.14233406
38	0x3b975e83	0.004619421
39	0xbd8fbb55	-0.070181526
40	0x3d22ef03	0.03977872
41	0xbd8b2728	-0.06794578
42	0x3d8a32a1	0.06747938
43	0x3e219ddf	0.1578288
44	0x3dc47939	0.09593434
45	0xbdb1bfe5	-0.08679179
46	0x3dd58d38	0.10427326
47	0x3cb965aa	0.022631485
48	0x3dbee0fa	0.093202546
49	0xbdfdd2a7	-0.12393694
50	0xbe4bba0b	-0.19895189
51	0xbdae703c	-0.08517501
52	0xbe228278	-0.15870082
53	0x3e16b675	0.1471804
54	0x3d30c417	0.043155756
55	0x3d89c6a0	0.06727338
56	0x3d424a3c	0.047434077
57	0xbc68ba59	-0.014204585
58	0x3e0e8f2e	0.13921806
59	0xbe18aa13	-0.14908628
60	0x3a9746cd	0.0011541486
61	0xbe11ce99	-0.14238967
62	0x3d433261	0.047655467
63	0xbd9248d2	-0.071427956
64	0x3d5a4d2f	0.053296264
65	0xbd417b49	-0.047236715
66	0x3e1f09e8	0.15531123
67	0xbdf44c51	-0.11928619
68	0xbdf8994a	-0.121386126
69	0xbdf398d8	-0.11894387
70	0x3e2c998f	0.16855453
71	0x3d6ebd6f	0.058286127
72	0x3e3aab5b	0.1822943
73	0xbe25e9d7	-0.16202484
74	0xbe48b5c4	-0.19600588
75	0xbe1bc883	-0.15213208
76	0xbe071d25	-0.13194712
77	0x3d969d2c	0.07354197
78	0x3d8bb605	0.06821827
79	0x3e22773d	0.15865798
80	0xbdd1d8bf	-0.10246419
81	0xbe012501	-0.12611772
82	0x3ddac91d	0.106828906
83	0xbd9584a8	-0.07300693
84	0x3dfad7ec	0.12248215
85	0xbd24c472	-0.040226407
86	0x3dec501e	0.11538719
87	0xbe13e11c	-0.14441341
88	0xbdbbf712	-0.09177984
89	0x3d82e06a	0.0639046
90	0x3d5c2d84	0.053754345
91	0xbd14b532	-0.036305614
92	0x3e01aaff	0.12662886
93	0x3e139d18	0.14415395
94	0xbe00bb95	-0.12571557
95	0xbdb78d4a	-0.089624956
96	0x3e415872	0.18881395
97	0xbd5259c1	-0.051355127
98	0xbd607470	-0.054798543
99	0xbe2be844	-0.16787821
100	0xbdbcc76f	-0.092177264
101	0x3d839373	0.06424608
102	0xbbdb2d58	-0.006688755
103	0xbdf62d66	-0.12020378
104	0x3cb86234	0.022507764
105	0xbde70471	-0.11280144
106	0xbe12d488	-0.14338887
107	0xbdb72910	-0.08943379
108	0xbe1bd79d	-0.15218969
109	0xbdd53a47	-0.10411506
110	0x3e5659e0	0.20932722
111	0x3d4e0fa9	0.050307903
112	0x3d987b00	0.074453354
113	0xbe24a664	-0.16079098
114	0xbde83dba	-0.113398984
115	0xbd4c8cc7	-0.049938943
116	0x3d435166	0.04768505
117	0xbe1bd00c	-0.15216082
118	0xbd86a606	-0.06574635
119	0xbdcb891c	-0.09938261
120	0x3c80e4ee	0.015734162
121	0xbd630d3e	-0.05543255
122	0x3b64f59c	0.0034936434
123	0xbdee8239	-0.11645932
124	0xbdf15dbd	-0.11785457
125	0xbdc0de86	-0.09417443
126	0xbd4a840f	-0.049442347
127	0xbe0b77e0	-0.13619947
128	0x3e33c5fe	0.17555997
129	0xbcc5b465	-0.02413387
130	0x3e383c67	0.17991792
131	0x3d97f7ce	0.07420312
132	0xbe18fa38	-0.14939201
133	0x3e158259	0.14600505
134	0xbd167934	-0.036736682
135	0xbdabba2a	-0.08385117
136	0xbe324f6c	-0.1741311
137	0xbe52bd43	-0.2058001
138	0x3d4a2ea8	0.0493609
139	0xbd4a9519	-0.049458597
140	0x3d86fae4	0.06590822
141	0xbe292083	-0.16516308
142	0x3e07c205	0.13257606
143	0xbe1a41ee	-0.15064213
144	0xbd3fd0ff	-0.046830174
145	0x3ccbbb93	0.024869716
146	0x3dabff21	0.08398271
147	0x3e142abe	0.1446943
148	0x3e2796e9	0.16366161
149	0xbe272714	-0.16323501
150	0x3d1b7434	0.037952617
151	0xbdbff325	-0.09372548
152	0xbcfc631f	-0.030808983
153	0xbe237fda	-0.1596674
154	0x3e2273a1	0.15864421
155	0xbe219740	-0.15780354
156	0x3db816d9	0.08988733
157	0x3d5c5ca3	0.053799283
158	0x3d49ce69	0.049269114
159	0xbded77c7	-0.11595111
160	0x3e264803	0.16238408
161	0x3cf9f063	0.030510133
162	0x3cab1902	0.020885948
163	0xbe2be6ce	-0.16787264
164	0x3da7a778	0.08186239
165	0xbcf815d1	-0.03028384
166	0xbdb65e2c	-0.089046806
167	0x3e245193	0.16046743
168	0x3d2342e8	0.03985873
169	0xbddba1b4	-0.10724202
170	0xbdd324a4	-0.10309723
171	0xbc37987c	-0.011205789
172	0x3dd4cda9	0.10390789
173	0xbd56716e	-0.05235427
174	0xbddd680c	-0.10810861
175	0xbd859579	-0.0652265
176	0xbe162d05	-0.14665611
177	0x3d88f472	0.06687249
178	0x3e191d4e	0.14952585
179	0xbe39a0ff	-0.18127821
180	0x3d33b32a	0.043872036
181	0x3dc66b07	0.096883826
182	0x3d00a615	0.03140839
183	0xbd87c548	-0.06629425
184	0x3dd14405	0.10218052
185	0x3dca94b7	0.09891646
186	0x3d914c33	0.07094612
187	0xbd0374ac	-0.03209369
188	0xbd48e221	-0.04904378
189	0x3cda0bee	0.026617017
190	0xbce5b678	-0.02804111
191	0xbd4f87f0	-0.05066675
192	0x3e04ee71	0.12981583
193	0x3e2f27dd	0.1710505
194	0xbc6575f9	-0.014005178
195	0xbd15552c	-0.03645818
196	0x3c04dc1e	0.008109121
197	0xbbe50fda	-0.006990415
198	0x3d4ab62a	0.04949013
199	0x3d6cfa25	0.057855744
200	0xbe2da59c	-0.16957706
201	0xbd8a5a5e	-0.067555174
202	0x3e297527	0.16548596
203	0x3da0c953	0.078508995
204	0xbbd12aab	-0.0063832602
205	0xbde8640a	-0.11347206
206	0xbdec76f3	-0.11546125
207	0xbe2b1c47	-0.16710006
208	0xbd69e2ca	-0.05710105
209	0x3d92ceb1	0.071683295
210	0x3e025b89	0.1273023
211	0x3dbecd52	0.093165055
212	0xbe299de7	-0.16564141
213	0xbde59c4c	-0.11211452
214	0xbce2f58f	-0.027704982
215	0x3e40e153	0.18835954
216	0x3d04edde	0.03245341
217	0xbd3b44ef	-0.045720037
218	0x3dad3e2d	0.08459125
219	0xbd889c7b	-0.06670471
220	0xbdf59b18	-0.119924724
221	0x3e14b738	0.14523017
222	0xbda1a376	-0.07892506
223	0xbcf78d37	-0.030218704
224	0xbe3d1523	-0.18465094
225	0x3e0bcdef	0.13652776
226	0x3e1cb517	0.15303455
227	0x3da1af83	0.07894804
228	0xbdfc601b	-0.12323018
229	0xbe387935	-0.18014987
230	0xbe16c0d1	-0.14721991
231	0x3e1f66ff	0.15566634
232	0x3dd6fc82	0.10497381
233	0x3e317e8f	0.17333435
234	0x3ddade39	0.10686917
235	0x3d5d217c	0.05398701
236	0x3ba25a03	0.004954578
237	0xbe0bf64f	-0.13668178
238	0xbe21d662	-0.15804437
239	0xbe31890d	-0.17337437
240	0x3db68257	0.08911579
241	0xbdab5cef	-0.08367335
242	0xbce96506	-0.028490555
243	0xbde2d410	-0.11075604
244	0xbd0fa473	-0.03506894
245	0xbe0ab437	-0.13545309
246	0xbe00c495	-0.1257499
247	0x3d82bd61	0.063837774
248	0xbd6a45cd	-0.057195473
249	0x3df3517b	0.118807755
250	0xbd7ce2be	-0.061739676
251	0xbe109033	-0.14117508
252	0xbd0b151f	-0.03395569
253	0xbdbf0ea9	-0.09328968
254	0xbd712a91	-0.058878485
255	0xbe3b9bd5	-0.18321164

conv_block_1.0.bias f4 [10]
0	0x3dafed1a	0.085901454
1	0xbe5025f6	-0.20326981
2	0x3def50f2	0.11685361
3	0x3e26c9cd	0.16287918
4	0x3e4d45c6	0.20046148
5	0xbd64a167	-0.055817988
6	0xbe250474	-0.1611498
7	0x3d6921d4	0.056917027
8	0x3dfec6d1	0.12440265
9	0xbe4424f7	-0.19154726

conv_block_1.2.weight f4 [10, 10, 3, 3]
0	0xbc93018a	-0.01794507
1	0xbd66d2ac	-0.056353256
2	0xbabcb951	-0.001439849
3	0xbd2a8c39	-0.041637633
4	0xbd08dd3f	-0.03341412
5	0xbcc94d2e	-0.024572935
6	0xbdb3b394	-0.08774486
7	0x3dc90839	0.098160215
8	0x3dc9b20a	0.098484114
9	0xbc04b602	-0.008100035
10	0x39277c33	0.00015972629
11	0xbcfd9a3d	-0.030957336
12	0xbdc60676	-0.09669201
13	0xbdcb0595	-0.09913174
14	0x3d319ddc	0.043363437
15	0xbd3943d8	-0.045230716
16	0xbd5b1814	-0.05348976
17	0xbad4ffcb	-0.0016250549
18	0xbca23adf	-0.019803463
19	0xbc9f01c7	-0.019410027
20	0x3c9712ea	0.018441636
21	0xbbccd2be	-0.0062507084
22	0xbc9be474	-0.019029833
23	0xbd0b9eb2	-0.03408689
24	0xbd900851	-0.07032836
25	0x3dd6c06f	0.104859225
26	0xbcd652a0	-0.026162446
27	0x3d465974	0.048425153
28	0xbc6796a5	-0.014135038
29	0x3cf8163d	0.030284042
30	0x3dea8b0b	0.114523016
31	0x3d868e72	0.06570138
32	0xbd92bf57	-0.071654014
33	0x3d6e442f	0.058170494
34	0x3debf886	0.115220115
35	0x3d38a889	0.045082603
36	0x3dc8df1f	0.09808182
37	0x3e09cc37	0.13456808
38	0x3c6d6505	0.014489417
39	0x3d2b62ec	0.041842386
40	0xbd51f393	-0.05125768
41	0x3b937f59	0.004501265
42	0x3dc52f72	0.0962819
43	0x3d90fe71	0.07079781
44	0xbd49ff79	-0.049315903
45	0xbdac2db6	-0.08407156
46	0xbd9fefa5	-0.078093804
47	0xbddae764	-0.106886655
48	0xbd9aaf54	-0.075529724
49	0xbcf94f4a	-0.030433316
50	0x3d8e610b	0.06952103
51	0x3c22af72	0.009929525
52	0xbdb08459	-0.08618993
53	0xbd9b00f8	-0.07568544
54	0x3d4fd3c6	0.050739072
55	0xbdb93057	-0.09042423
56	0xbc7837c7	-0.015150017
57	0x3d2fa432	0.0428812
58	0xbd3cb7bb	-0.046073657
59	0xbc8d7ca5	-0.01727135
60	0xbc99a56c	-0.018755637
61	0xbd025799	-0.03182182
62	0xbd720744	-0.05908896
63	0xbda0a13b	-0.07843252
64	0xbd92baf7	-0.07164567
65	0xbd4162b6	-0.04721328
66	0x3decae42	0.115566745
67	0xbd20947f	-0.039204117
68	0xbd770753	-0.06030972
69	0x3d1f51cb	0.038896363
70	0x3d305213	0.043047022
71	0x3d92a662	0.07160641
72	0x3dbb30dd	0.09140179
73	0x3d994132	0.07483138
74	0xbda74dd5	-0.08169142
75	0x3cc9a5ea	0.024615247
76	0x3da261b6	0.07928793
77	0x3bb0bd67	0.0053936723
78	0xbd41bbb6	-0.047298156
79	0x3ded6684	0.11591819
80	0xbcbd140b	-0.023080846
81	0xbd75d16f	-0.060014185
82	0xbdc2a045	-0.09503225
83	0x3b9a4960	0.004708454
84	0x3d3f5355	0.04671033
85	0x3cbf264c	0.023333691
86	0x3caac268	0.020844653
87	0xbda3b823	-0.07994106
88	0xbdc99b1a	-0.098440364
89	0x3af34b61	0.0018561893
90	0x3dc922ce	0.098210916
91	0x3d7ebfe6	0.062194727
92	0xbd7651aa	-0.060136475
93	0xbc3ec017	-0.0116424775
94	0xbd9c09db	-0.07619067
95	0xbd4c3409	-0.049854312
96	0x3cab6435	0.020921806
97	0x3d7039a6	0.058648728
98	0x3db4b59e	0.08823703
99	0xbdc4ade6	-0.09603481
100	0x3d8edf33	0.069761656
101	0xbda0d3ab	-0.078528725
102	0x3d340a07	0.043954875
103	0x3db8b696	0.090192005
104	0x3a46f98c	0.0007590286
105	0x3dcfb297	0.10141485
106	0xbda7bd9c	-0.08190462
107	0xbd0441a0	-0.032289147
108	0x3d8052b6	0.06265776
109	0xbcb73581	-0.02236438
110	0xbcb2b413	-0.021814382
111	0xbd309b11	-0.043116633
112	0x3d964dae	0.07339035
113	0x3d5224a1	0.051304463
114	0x3d0f35a1	0.034963254
115	0xbd6cd609	-0.057821307
116	0xbdadb182	-0.084811226
117	0x3c361dd8	0.011115514
118	0x3d0b5d98	0.034024805
119	0xbd3dc9c4	-0.046334997
120	0xbcdb11f2	-0.026741955
121	0x3d9aad08	0.07552534
122	0x3c569551	0.013097123
123	0x3c093f74	0.008376945
124	0xbca36717	-0.019946618
125	0xbdb3259f	-0.0874741
126	0xbdc3c4c6	-0.09559016
127	0xbd4476f9	-0.047965024
128	0xbd3d4629	-0.046209488
129	0x3d26fcc1	0.04076839
130	0xbca2e0c0	-0.01988256
131	0xbcdd84b6	-0.02704082
132	0x3dea3db0	0.11437547
133	0x3d50e3ea	0.050998606
134	0x3dbce6fb	0.092237435
135	0xbd25d62e	-0.04048746
136	0xbd3fd918	-0.046837896
137	0x3d245f0e	0.040129714
138	0xbd7e5785	-0.062095184
139	0xbd9615fc	-0.07328412
140	0xbc3cb245	-0.011517112
141	0xbd4267b0	-0.047462165
142	0xbdafebed	-0.08589921
143	0x3d96f492	0.07370867
144	0x3d9d6ed1	0.07687152
145	0x3cfeaeb9	0.031089174
146	0xbc16eed4	-0.0092122145
147	0xbdd510f1	-0.10403622
148	0xbd11c6da	-0.03559003
149	0x3c8508f1	0.016239615
150	0x3d37d884	0.04488422
151	0xbc4aafab	-0.012370984
152	0xbd099fbc	-0.0335996
153	0x3d7c230e	0.06155687
154	0xbda6b5e9	-0.08140165
155	0x3d8c29d3	0.06843915
156	0xbd1b0185	-0.037843246
157	0x3add5ca9	0.0016888577
158	0xbcb3deb2	-0.021956775
159	0x3c4e2196	0.01258125
160	0xbcffbea3	-0.031218832
161	0x3d9a8560	0.075449705
162	0x39e7c143	0.00044203745
163	0x3db46ffc	0.08810422
164	0x3ddc3938	0.10753101
165	0xbd387396	-0.045032106
166	0xbd91ef7b	-0.071257554
167	0x3db4321a	0.087986186
168	0x3dc13142	0.09433223
169	0xbd8f14ff	-0.069864266
170	0xb9fab138	-0.00047815754
171	0xbdd4e215	-0.10394684
172	0xbdb0b7b9	-0.08628792
173	0x3ca6c7f1	0.020359011
174	0x3ce5b968	0.02804251
175	0x3cb70c5f	0.022344766
176	0xbceb0485	-0.028688679
177	0x3dc72a15	0.097248234
178	0x3c76ed32	0.0150712
179	0xbd7ec5d9	-0.0622004
180	0xbb951e4a	-0.00455073
181	0x3cdde112	0.027084861
182	0x3d1e1a2f	0.03859919
183	0xbd939e14	-0.072078854
184	0x3d2b8e2a	0.041883625
185	0xbd5c0ba0	-0.053722024
186	0xbda816b4	-0.08207455
187	0xbd5ebdd6	-0.05438026
188	0x3dd327f7	0.10310357
189	0x3db88b8e	0.09010993
190	0x3dc150c7	0.09439235
191	0x3d7d7220	0.061876416
192	0x3da315c6	0.07963137
193	0xbc672971	-0.0141090015
194	0xbd6d907a	-0.05799911
195	0x3d57bad9	0.052668426
196	0xbd5fba8b	-0.05462126
197	0xbd91b055	-0.07113711
198	0xbcd857e8	-0.026409104
199	0x3cde4f58	0.027137443
200	0x3d7eff09	0.06225494
201	0xbceeab14	-0.02913431
202	0xbd505852	-0.05086548
203	0x3cbf4e4f	0.02335277
204	0xbd4d9609	-0.050191913
205	0xbd68c570	-0.056828916
206	0x3d8a2958	0.06746167
207	0xbbc3fca5	-0.0059810453
208	0x3ddc28f9	0.107500024
209	0x3debd33c	0.11514899
210	0x3d2a5605	0.04158594
211	0x3d44e50e	0.048070006
212	0x3d126931	0.03574485
213	0x3c14c6a8	0.0090805665
214	0x3b7f2eb7	0.0038937756
215	0x3c5428a8	0.012949146
216	0x3d533832	0.051567264
217	0x3de1f0f6	0.11032288
218	0xbc8b0166	-0.01696844
219	0xbd056924	-0.032570973
220	0xbc778618	-0.015107654
221	0xbd2f938f	-0.042865332
222	0x3cc5ed61	0.024161043
223	0x3db92f18	0.090421855
224	0x3dc0d459	0.09415502
225	0x3d35da3d	0.04439758
226	0xbd9a3873	-0.07530298
227	0xbd67b9c6	-0.05657365
228	0xbccb0071	-0.024780484
229	0xbc9f2a8e	-0.019429471
230	0x3bbfd564	0.0058542956
231	0xbdc7e236	-0.09759943
232	0x3d001c21	0.031276826
233	0xbda9bf96	-0.08288495
234	0xbd889883	-0.06669714
235	0xbdb8fcaf	-0.090325706
236	0x3dac1f81	0.084044464
237	0xbdcc6c73	-0.099816225
238	0x3da2d9ef	0.07951724
239	0xbb683a9c	-0.0035435325
240	0xbc48d9d8	-0.012258969
241	0x3d8706f3	0.06593122
242	0xbc1f9ff4	-0.009742726
243	0x3d8bba81	0.06822682
244	0x3da25853	0.07927003
245	0xbdbdb250	-0.09262526
246	0x3d3b8486	0.04578068
247	0x3cc696c9	0.024241822
248	0x3d07b255	0.033129055
249	0x3cd71079	0.026252972
250	0x3d1b3881	0.037895683
251	0xbd3e75fe	-0.046499245
252	0xbb513d53	-0.0031927421
253	0x3de1e374	0.11029711
254	0x3da6c8e9	0.08143789
255	0x3bdf0acb	0.0068067065

conv_block_1.2.bias f4 [10]
0	0x3cba95c4	0.022776492
1	0x3cc26f58	0.023734733
2	0xbda4be69	-0.0804413
3	0xbdb901e1	-0.090335615
4	0x3ba1b5d9	0.004935008
5	0xbd336c2f	-0.043804344
6	0x3b548fe2	0.0032434394
7	0xbcbb16b3	-0.022837972
8	0x3d04183e	0.03224968
9	0x3d5cc218	0.05389604

conv_block_2.0.weight f4 [10, 10, 3, 3]
0	0xbd86c2be	-0.06580113
1	0x3d5c8d04	0.05384542
2	0x3d593d66	0.05303707
3	0xbde07351	-0.10959495
4	0xbde02e2a	-0.10946305
5	0xbde99fac	-0.11407408
6	0xbda94872	-0.08265771
7	0xbd8d10f2	-0.06887998
8	0xbd17ac98	-0.037029833
9	0xbcc0f567	-0.023554517
10	0xbd5126d8	-0.051062435
11	0xbcfd665e	-0.030932602
12	0xbd13662e	-0.035986118
13	0x3dd7f541	0.10544825
14	0xbd16a63d	-0.03677963
15	0xbd97b1e2	-0.07406975
16	0x3d3961d7	0.045259323
17	0xbb91ef8a	-0.004453604
18	0x3d94b300	0.07260704
19	0x3d656bd9	0.056011055
20	0x3db6acfa	0.089197114
21	0xbdabfefd	-0.083982445
22	0x3d74e21f	0.05978596
23	0x3dac4730	0.084120154
24	0xbd61c256	-0.055116974
25	0x3db60f7f	0.088896744
26	0x3d955c4c	0.07292995
27	0x3bb295de	0.0054499945
28	0x3d5ca2e8	0.053866297
29	0xbd267144	-0.040635362
30	0xbdb311c0	-0.0874362
31	0x3cbf8e8e	0.023383405
32	0x3d0e6bd9	0.03477082
33	0xbd84574d	-0.06461964
34	0x3d46a0c1	0.04849315
35	0xbdb5219f	-0.08844303
36	0x3d9fa75f	0.077955954
37	0x3db3f520	0.08786988
38	0x3c82c3aa	0.01596244
39	0xbda1ec04	-0.079063445
40	0x3d1cc83b	0.038276892
41	0x3b9d280c	0.0047960337
42	0x3c7b2006	0.015327459
43	0x3cb3068a	0.021853704
44	0x3d8d1ae2	0.06889893
45	0xbd47b89e	-0.04876005
46	0xbd136326	-0.035983227
47	0x3caa2b5c	0.020772628
48	0x3c76520a	0.015034208
49	0x3dab41ee	0.083621845
50	0xbd84c1bd	-0.06482265
51	0xbc6ed359	-0.014576756
52	0x3c5d4fe5	0.013507818
53	0xbcedadd7	-0.029013557
54	0x3d56644d	0.052341748
55	0xbbf35d78	-0.007426914
56	0xbdf62a6e	-0.120198116
57	0xbce59ceb	-0.028028926
58	0xbd86ea7d	-0.06587694
59	0xbc476083	-0.012169006
60	0xbccfc533	-0.025362587
61	0xbdf24ea2	-0.11831404
62	0xbd18e55b	-0.037328105
63	0x3c1ca9e5	0.00956199
64	0xbc42ce7f	-0.011890053
65	0x3debe33d	0.11517952
66	0xbb409919	-0.0029388128
67	0x3db23c05	0.08702854
68	0x3d3771a1	0.0447861
69	0xbd904ad2	-0.07045521
70	0x3d2fc45f	0.042911883
71	0x3dd79a30	0.10527456
72	0xbd9b19d4	-0.07573286
73	0xbda26987	-0.07930284
74	0x3dc75b79	0.09734244
75	0x3d9aabd1	0.07552303
76	0xbd937862	-0.072006956
77	0x3d6c7e59	0.057737682
78	0xbcc38958	-0.023869202
79	0xbde6b0ed	-0.11264215
80	0x3a5d94b4	0.00084526394
81	0x3d1d4e09	0.0384045
82	0xbcdea9f0	-0.027180642
83	0x3d2887fe	0.041145317
84	0xbdafc31a	-0.085821345
85	0x3d9e0dab	0.07717451
86	0x3dc0ed0d	0.09420214
87	0x3d7bbe60	0.061460853
88	0x3cafa396	0.021440309
89	0x3d1bc62d	0.038030792
90	0xbd42931c	-0.047503576
91	0xbac77e1c	-0.0015220079
92	0x3c9035ce	0.017603781
93	0xbce28c43	-0.027654773
94	0xbd488b23	-0.048960816
95	0x3dc4d65c	0.09611198
96	0x3dcd38f2	0.10020627
97	0xbd96fa10	-0.073719144
98	0x3d6834fe	0.056691162
99	0x3d557ae9	0.05211917
100	0x3dde8b2b	0.10866388
101	0x3d92aebf	0.071622364
102	0x3dd6f386	0.10495667
103	0xbcde708f	-0.027153281
104	0x3da79e36	0.08184473
105	0x3dbf8751	0.093519814
106	0xbdbb36da	-0.091413215
107	0xbd9afa9a	-0.0756733
108	0x3d11485f	0.03546941
109	0x3d8d8c59	0.06911535
110	0xbd2ac0a1	-0.04168761
111	0x3c757c36	0.0149832275
112	0x3c2cf50d	0.0105564715
113	0x3d1c9120	0.03822434
114	0xbd441795	-0.047874052
115	0x3d8300d5	0.06396643
116	0x3d9fed51	0.078089364
117	0xbd95c9f2	-0.07313909
118	0x3a85d7e9	0.0010211441
119	0x39995668	0.00029246812
120	0x3d0aa4cd	0.033848573
121	0x3dc91bd6	0.098197624
122	0x3cfd3c97	0.03091268
123	0xbcc43584	-0.0239513
124	0x3dc1e325	0.094671525
125	0xbd244c27	-0.040111687
126	0xbc7ca8a7	-0.015421069
127	0x3ca88e14	0.02057556
128	0xbda2eb0c	-0.07954988
129	0x3c2440dc	0.010025229
130	0xbd8b4391	-0.06799997
131	0x3c87c59c	0.01657372
132	0x3cb4f76e	0.02209064
133	0x3cd068bb	0.025440564
134	0xbdb1e674	-0.086865336
135	0xbdcd41c2	-0.10022308
136	0x3d36e562	0.04465235
137	0x3dc6699a	0.09688111
138	0xbdb5bd77	-0.08874028
139	0x3d1cbc49	0.0382655
140	0xbd961c69	-0.073296376
141	0x3c1bdad5	0.009512623
142	0x3dd9f91a	0.106432155
143	0x3d932b45	0.071859874
144	0xbd6fd480	-0.058552265
145	0x3dba393e	0.09092949
146	0x3daab479	0.08335204
147	0x3d08f551	0.033437077
148	0x3e0accf6	0.13554749
149	0xbc8a158b	-0.016855976
150	0x3b90c1ee	0.0044176495
151	0xbccc445e	-0.024934944
152	0x3d3518c1	0.04421306
153	0x3cce6e57	0.025199099
154	0x3ba89c54	0.005145589
155	0xbd7105a4	-0.05884327
156	0xbd399f79	-0.0453181
157	0x3d0369b8	0.032083243
158	0xbdc47328	-0.09592277
159	0xbc72e830	-0.014825866
160	0xbbdec372	-0.0067982012
161	0xbd331314	-0.043719366
162	0x3d85a645	0.06525854
163	0x3d19da85	0.037561912
164	0x3dc3232b	0.09528192
165	0x3c925c78	0.017866358
166	0xbd39d793	-0.045371603
167	0x3dbaf527	0.0912879
168	0x3d26ba2b	0.040704887
169	0xbb8da521	-0.0043226634
170	0xbd52b9bf	-0.051446673
171	0x3cf5c29f	0.03000003
172	0xbdc556a7	-0.09635668
173	0x3d0426f0	0.032263696
174	0x3d6e2d11	0.058148447
175	0xbdaf7038	-0.08566326
176	0xbd81da16	-0.06340425
177	0xbd8d902b	-0.069122635
178	0x3dc2e862	0.0951698
179	0x3dc64c50	0.09682524
180	0xbcc614b9	-0.024179803
181	0x3d8dd776	0.069258615
182	0xbd845b6a	-0.06462748
183	0xbe07702b	-0.13226382
184	0x3bf1da99	0.007380795
185	0x3c0d7392	0.008633511
186	0x3d98de4f	0.07464277
187	0xbcef2a3a	-0.02919494
188	0x3d4f2fc8	0.050582677
189	0x3d814ab9	0.0631308
190	0x3d99dfd8	0.07513398
191	0xbdd890c0	-0.10574484
192	0x3dae543a	0.08512159
193	0xbdbad30d	-0.09122286
194	0x3dbe502f	0.092926376
195	0xbbe3e65d	-0.0069549517
196	0xbdc3b83a	-0.09556623
197	0x3cdf3d22	0.02725083
198	0xbcdde3e6	-0.02708621
199	0xbdd71392	-0.105017796
200	0xbd399090	-0.04530388
201	0x3b30a5e7	0.0026954354
202	0x3d9c80ab	0.07641729
203	0xbd0b7ce6	-0.03405466
204	0x3d539b20	0.05166161
205	0x3bd34d6a	0.0064484375
206	0x3a2e1257	0.0006640306
207	0x3cc440c9	0.023956673
208	0xbd9563e8	-0.07294446
209	0xbdbc85c3	-0.092052005
210	0xbd146faa	-0.036239304
211	0xbdcd94d0	-0.10038149
212	0xbd38ed43	-0.045148145
213	0x3b1ba6eb	0.0023750614
214	0xbd8651a9	-0.06558544
215	0xbd30f905	-0.043206234
216	0xbcfc6815	-0.030811349
217	0xbcc6a278	-0.024247393
218	0xbd93cfd4	-0.072173744
219	0xbbcb582a	-0.0062055783
220	0xbcd865f0	-0.026415795
221	0x3c9589cd	0.018254185
222	0xbbd6bbb3	-0.006553137
223	0xbd82f3e9	-0.063941784
224	0xbd3ff59e	-0.0468651
225	0xbc42fedb	-0.011901583
226	0xbda0474d	-0.078260995
227	0xb9e7a545	-0.0004418289
228	0xbc7e3675	-0.015515913
229	0x3d02d100	0.0319376
230	0x3c6dc6f6	0.014512768
231	0x3d8e9592	0.06962122
232	0xbc34bc14	-0.011031169
233	0xbdaf9522	-0.08573367
234	0x3c9a7e74	0.018859126
235	0xbdcb6643	-0.09931614
236	0xbd24bee3	-0.040221106
237	0xbd7bfeaf	-0.061522182
238	0xbd8cdb6f	-0.06877791
239	0xbd8b6973	-0.06807222
240	0x3d941647	0.072308116
241	0x3d0f3788	0.034965068
242	0x3a8a7f16	0.0010566439
243	0x3df59fa9	0.119933434
244	0xbd98f558	-0.074686706
245	0x3d1fd507	0.039021518
246	0x3db3e2c8	0.087834895
247	0x3db9d886	0.09074502
248	0xbd7f2592	-0.06229169
249	0x3d636f1a	0.055525877
250	0xbd27b418	-0.040943235
251	0x3c665254	0.0140577145
252	0xbd2c8ce0	-0.042126536
253	0xbdd4c819	-0.10389728
254	0xbdf14bfc	-0.11782071
255	0xbdb74be4	-0.08950022

conv_block_2.0.bias f4 [10]
0	0x3ce4133e	0.027841207
1	0xbaa12bdb	-0.0012296395
2	0x3c9be7b0	0.019031376
3	0x3d854d83	0.06508925
4	0xbd6fe5ad	-0.058568645
5	0xbd4a74bc	-0.049427733
6	0x3d4aa7b1	0.04947633
7	0x3b89ab9f	0.004201367
8	0xbc3e12c2	-0.011601152
9	0xbdbd9ff4	-0.09259024

conv_block_2.2.weight f4 [10, 10, 3, 3]
0	0x3d9c44df	0.076303236
1	0xbc7e25a4	-0.015511904
2	0xbcf3e442	-0.029771928
3	0xbd5d1977	-0.053979363
4	0xbcea5fb8	-0.028610095
5	0x3d2f015c	0.042725906
6	0xbc4f99bc	-0.0126709305
7	0x3da72253	0.08160844
8	0xbc6f7709	-0.014615783
9	0xbd071b81	-0.032985214
10	0x3d61ee34	0.05515881
11	0xbbb08a22	-0.0053875605
12	0xbd16d4b6	-0.03682395
13	0x3c8c984d	0.017162466
14	0x3d911554	0.07084146
15	0x3c31daeb	0.010855417
16	0x3d761517	0.060078707
17	0x3d499edc	0.049223766
18	0x3c6e0f40	0.014530003
19	0x3cada21d	0.021195466
20	0x3ca17fc8	0.019714251
21	0xbb52847e	-0.0032122429
22	0x3d9d3ab1	0.0767721
23	0x3dadbef5	0.08483688
24	0x3ccdd094	0.025123872
25	0xbc880b85	-0.016607055
26	0x3dad12de	0.08450864
27	0xbdcb6faa	-0.099334076
28	0x3d778899	0.060433004
29	0x3d20e9b0	0.03928536
30	0x3d50c428	0.05096832
31	0xbcc742f3	-0.024323916
32	0xbdc0d728	-0.09416038
33	0x3d7470ed	0.059678007
34	0xbd7a8eaa	-0.06117121
35	0x3c57dede	0.013175694
36	0x3d79d978	0.06099841
37	0xbdc47357	-0.09592312
38	0x3b16a4af	0.0022986343
39	0xbd0a586f	-0.033775743
40	0x3d9bd12d	0.076082565
41	0xbd8649f6	-0.06557076
42	0x3d7a42c5	0.061098833
43	0x3d8ce644	0.06879857
44	0x3d616e27	0.05503669
45	0x3de06ba9	0.109580345
46	0x3cd74bcc	0.02628126
47	0xbdba6ec6	-0.091031596
48	0x3d88dcae	0.06682716
49	0x3c1f2ac0	0.009714782
50	0x3c60ae8b	0.013713489
51	0xbdd08741	-0.10182048
52	0xbcea22d3	-0.028581059
53	0xbd3ef305	-0.04661848
54	0x3dab2756	0.08357112
55	0x3d66a48d	0.05630927
56	0x3d737306	0.059435867
57	0x3d5860d8	0.052826732
58	0xbdad9e05	-0.084774055
59	0xbd837b52	-0.06420006
60	0xbd77e20c	-0.06051831
61	0xbd7c8f2a	-0.06165997
62	0x3d813550	0.06308997
63	0x3d0f19c8	0.034936696
64	0x3db52394	0.088446766
65	0xbb0d4b27	-0.0021559687
66	0xbdb3937a	-0.08768363
67	0xbc95fb85	-0.01830841
68	0x3da8c89c	0.08241388
69	0x3d8ef7bb	0.069808446
70	0x3d242d5f	0.04008233
71	0xbc891183	-0.016731983
72	0xbdc97e93	-0.09838595
73	0xbd67fe84	-0.05663921
74	0x3d611bfb	0.054958325
75	0xbd2e26fa	-0.04251764
76	0x3d4e8695	0.050421316
77	0x3cebc643	0.028781062
78	0xbd25d506	-0.040486358
79	0x3d837c98	0.06420249
80	0xbd0abcc4	-0.033871427
81	0xbb65816f	-0.0035019775
82	0xbd24762c	-0.04015176
83	0xbdccc6a0	-0.09998822
84	0x3c8b3b31	0.016995998
85	0x3cf98754	0.030460037
86	0xbd59619b	-0.0530716
87	0x3d846e06	0.06466298
88	0xbdc1a79a	-0.094557956
89	0xbdd019fc	-0.10161206
90	0xbda47111	-0.08029378
91	0xbd56a7d4	-0.052406147
92	0xbcd4d498	-0.025980279
93	0xbd0ec1b3	-0.034852695
94	0x3d087be5	0.03332128
95	0xbdd8b323	-0.105810426
96	0x3b489d7b	0.0030611444
97	0xbc319d0c	-0.010840666
98	0x3c87ac2c	0.01656159
99	0x3df797bf	0.1208949
100	0x3d99b493	0.07505145
101	0xbd1dd19d	-0.03852998
102	0xbd9f684c	-0.07783565
103	0xbc32dcb9	-0.010916882
104	0xbcd446a1	-0.025912585
105	0x3d5b2c90	0.053509295
106	0x3cc2374d	0.02370801
107	0x3dd90af5	0.10597793
108	0x3ced257e	0.028948542
109	0xbd025960	-0.031823516
110	0xbc1b4dfd	-0.009479043
111	0x3c57d3a6	0.0131730195
112	0xbcd16911	-0.025562795
113	0x3d955f2b	0.072935425
114	0xbdc086a9	-0.094006844
115	0x3d2409c4	0.040048376
116	0xbda0a3fa	-0.07843776
117	0xbdcc0161	-0.099612005
118	0xbcecf9cc	-0.028927706
119	0x3d3625cb	0.044469636
120	0x3d89d2a5	0.067296304
121	0x3c9ff1ab	0.019524416
122	0xbc8276e7	-0.015925838
123	0xbc4b8ab0	-0.012423202
124	0xbd493d30	-0.04913062
125	0xbc817a1b	-0.015805295
126	0xbbdf2996	-0.0068103774
127	0x3db97f60	0.09057498
128	0x3d7c40c6	0.06158521
129	0xbda64178	-0.08117956
130	0x3bd7916e	0.006578616
131	0xbd7198d1	-0.058983628
132	0xbc36b752	-0.011152105
133	0xbda1245c	-0.07868263
134	0x3ce017f2	0.027355168
135	0xbd91cee1	-0.07119537
136	0x3dda4416	0.106575176
137	0x3dacb2cb	0.084325396
138	0xbd9f1a8d	-0.07768736
139	0xbdc34ef5	-0.09536544
140	0x3c2f61d3	0.010704475
141	0xbd0fce14	-0.03510864
142	0x3d0502bd	0.032473315
143	0xbd8ef380	-0.06980038
144	0x3d30eda4	0.04319538
145	0xbdba1703	-0.090864204
146	0xbd60cc9d	-0.054882634
147	0xbd62a3b9	-0.05533192
148	0x3d520317	0.051272478
149	0xbb0ba044	-0.0021305243
150	0xbdce9880	-0.10087681
151	0xbd73534d	-0.059405614
152	0xbd4605ef	-0.048345502
153	0xbdf3bdc8	-0.11901432
154	0xbc21d5fb	-0.009877677
155	0x3c82ff0f	0.015990762
156	0xbd279c77	-0.0409207
157	0xbd7e3bef	-0.062068876
158	0xbca88487	-0.020571006
159	0xbdcbd169	-0.09952051
160	0xbda5b364	-0.08090857
161	0xbcaf3fba	-0.021392692
162	0x3dbfc800	0.09364319
163	0xbd04c4c8	-0.032414228
164	0x3d56010d	0.052247096
165	0xbd29eafa	-0.041483857
166	0xbce5dd7b	-0.028059712
167	0xbdcd8107	-0.10034376
168	0x3db2da11	0.08732999
169	0x3dd234de	0.1026399
170	0xbb1117b1	-0.0022139365
171	0x3d892997	0.06697386
172	0x3db09364	0.086218625
173	0x3d567601	0.05235863
174	0x3d5e5ce3	0.054287802
175	0xbdcd8394	-0.10034862
176	0xbdcadab8	-0.099049985
177	0xbda5b1f8	-0.080905855
178	0x3d070c13	0.0329705
179	0xbdbabac5	-0.09117655
180	0xbdadf1dc	-0.08493397
181	0xbd66788d	-0.05626731
182	0xbdd13e2d	-0.10216937
183	0xbb758281	-0.003746182
184	0x3c33e2c1	0.010979355
185	0xbd864a70	-0.065571666
186	0x3d88b700	0.066755295
187	0xbd2f88b8	-0.042854995
188	0xbd02dd2d	-0.03194921
189	0x3dda8d2d	0.106714584
190	0x3de6fea6	0.11279039
191	0x3c19cc2b	0.009387056
192	0xbd4b8d46	-0.049695276
193	0xbcdfc185	-0.027313957
194	0x3d0084b5	0.03137656
195	0x3da04bf1	0.07826985
196	0x3d94a296	0.07257573
197	0xbce9532f	-0.028482048
198	0xbdccc724	-0.099989206
199	0xbdbf3d88	-0.09337908
200	0xbd0edcf3	-0.034878682
201	0x3ac5bc35	0.0015085997
202	0xbd4553e6	-0.048175715
203	0xbdadd659	-0.08488149
204	0x3c4ab3be	0.012371955
205	0xbdaba746	-0.08381514
206	0xbda71985	-0.08159164
207	0xbda8cb2a	-0.082418755
208	0xbcd374e6	-0.025812577
209	0x3dc3babf	0.09557103
210	0x3d364cc8	0.044506818
211	0xbc1c1b49	-0.00952799
212	0x3cc7ed17	0.024405045
213	0x3d3b17a9	0.04567686
214	0x3b7e4691	0.0038799385
215	0xbda7b080	-0.081879616
216	0xbd76bc50	-0.060238183
217	0xbd88dd6e	-0.06682859
218	0x3ad33725	0.0016114457
219	0xbdbca21b	-0.09210607
220	0xbc6758b1	-0.014120267
221	0xbd0e369d	-0.034720052
222	0x3ddbddd8	0.10735673
223	0x3daf99df	0.085742705
224	0x3d881878	0.06645292
225	0x3c0306cc	0.007997226
226	0xbd0fae83	-0.035078537
227	0x3cf75a45	0.030194411
228	0xbd9776d6	-0.07395713
229	0xbd45c871	-0.04828686
230	0xbc899984	-0.016796835
231	0xbcfbdd5e	-0.030745205
232	0xbdc6dcde	-0.09710096
233	0x3d3ae98b	0.04563288
234	0x3dc0c953	0.094133995
235	0xbd509c4c	-0.050930306
236	0x3d115f10	0.03549105
237	0xbb9acd4f	-0.0047241817
238	0x3b6144a5	0.003437319
239	0x3c5bd5f0	0.013417706
240	0x3dca818d	0.09887991
241	0x3cb23c57	0.021757288
242	0xbd723989	-0.0591369
243	0xbd53fd1f	-0.051755067
244	0x3d0b950f	0.0340777
245	0x3c93cbae	0.018041458
246	0xbc3cbabc	-0.01151913
247	0xbcfb39df	-0.030667244
248	0xbd6aacaa	-0.05729357
249	0xbd477e7e	-0.048704617
250	0xbd8af0b2	-0.0678419
251	0x3bb23d09	0.005439405
252	0x3cf282bb	0.029603353
253	0x3da54ec1	0.08071662
254	0xbcc3143f	-0.023813365
255	0x3bf7456c	0.0075461175

conv_block_2.2.bias f4 [10]
0	0x3d7a9059	0.061172817
1	0x3da4d05d	0.08047555
2	0x3d3ee5c4	0.04660584
3	0xbdc4a4c1	-0.09601737
4	0x3b4b9c3f	0.0031068472
5	0xbd206197	-0.03915557
6	0xbcf2bde5	-0.029631564
7	0x3d8c328c	0.068455786
8	0xbd173ccc	-0.036923215
9	0xbd9a9b0b	-0.07549103

classifier.1.weight f4 [3, 1690]
0	0xbcb4d0ce	-0.022072222
1	0x3c549f52	0.012977438
2	0xba9bd1ee	-0.0011888125
3	0x3cae96bc	0.02131211
4	0x3affc385	0.0019513225
5	0xbcd12be0	-0.025533617
6	0x3b3960ff	0.0028286574
7	0x3c9a7a22	0.018857066
8	0x3c40c7eb	0.011766414
9	0x3b89f4d3	0.0042100935
10	0xbcaebd47	-0.021330489
11	0xbc8d8044	-0.017273076
12	0x3c665df7	0.014060489
13	0xbc980c8f	-0.018560676
14	0x3b422d5f	0.0029629094
15	0xbbc16915	-0.0059024193
16	0x3ba5edd4	0.0050637517
17	0xbacca5e6	-0.0015613406
18	0xbcafcd6f	-0.021460263
19	0xbc50b6e0	-0.012738913
20	0x3c970dce	0.0184392
21	0x3921e095	0.0001543782
22	0x3c1bb7fb	0.009504314
23	0xbc7ab78a	-0.015302548
24	0x3c84fe49	0.016234534
25	0xbc05292b	-0.008127491
26	0xbc2c1654	-0.01050337
27	0x3b1dea24	0.0024095858
28	0xbc3be2f5	-0.011467685
29	0xbc48633a	-0.012230689
30	0xbbc3cb58	-0.005975168
31	0xbb59bc93	-0.0033223971
32	0xbc837672	-0.01604769
33	0x3bcc27f1	0.0062303473
34	0xbcd31e04	-0.025771149
35	0x3c4d9709	0.012548217
36	0x3ca1f59f	0.019770442
37	0x3a81e9c9	0.0009911592
38	0xbc129dfc	-0.008948799
39	0xbcc77cf8	-0.024351582
40	0x3c1892e6	0.009312367
41	0x3c903623	0.01760394
42	0x3c97b331	0.018518062
43	0x389301fb	7.009875e-05
44	0x3bd82753	0.0065964847
45	0x3cb343e5	0.02188296
46	0x3b06b94e	0.0020557228
47	0xbc5b9829	-0.013402977
48	0xbcccb179	-0.02498697
49	0x3c0f27b8	0.008737497
50	0x3be17d03	0.0068813576
51	0x3c97866d	0.018496716
52	0xbc6b8ce5	-0.014376854
53	0x3c0e8206	0.008697992
54	0xbc1d00b7	-0.00958269
55	0xbbfa5dab	-0.0076405606
56	0x3c4d4845	0.012529437
57	0xbcbfa8b2	-0.02339587
58	0x3c8d0922	0.017216269
59	0x3c259248	0.010105677
60	0xbc817401	-0.015802385
61	0x3c3521dc	0.011055436
62	0xbbf9601a	-0.007610333
63	0x39f7f315	0.00047292621
64	0xbc1633f3	-0.009167659
65	0xbcd24f46	-0.025672566
66	0xbb84b1ae	-0.0040495014
67	0x3c2ce1d2	0.010551887
68	0xbb8e76cb	-0.0043476573
69	0xbc5b1e9a	-0.013373995
70	0xb9dc4a08	-0.00042016828
71	0x3b825e9c	0.0039785635
72	0xbbfbe4be	-0.0076871803
73	0xbca6f9cc	-0.020382784
74	0xbc71a8cd	-0.014749718
75	0xbbb3dbd4	-0.005488852
76	0x3be8a9e4	0.0071003307
77	0x3ca0123e	0.019539949
78	0xbaa4e128	-0.0012579309
79	0x3be8fe10	0.0071103647
80	0x3c4f10fb	0.012638326
81	0xbc46b3c2	-0.012127819
82	0xbc220dca	-0.009890983
83	0x3c701c1b	0.014655138
84	0x3c8a50d0	0.016884238
85	0x3b9acc46	0.0047240583
86	0xbca6ee5d	-0.020377332
87	0x3c48d012	0.012256639
88	0xbcb23502	-0.021753792
89	0x3c2a1c51	0.010382728
90	0x3a88b8d0	0.0010431055
91	0x3bcc8bdf	0.00624226
92	0xbcce83f6	-0.025209408
93	0xbc21fd67	-0.009887076
94	0x3c131055	0.008976062
95	0x3c8d114e	0.017220166
96	0xbc054892	-0.008134978
97	0x3cad1295	0.021127025
98	0xbbc34cbd	-0.0059600757
99	0xbc82ed7e	-0.015982386
100	0xbc4858d7	-0.012228212
101	0xb9581481	-0.00020607004
102	0xbbc42595	-0.0059859254
103	0x3c209d1e	0.009803085
104	0xbc7bde94	-0.015372891
105	0xbc09f6a7	-0.008420623
106	0xbccd9595	-0.02509574
107	0x3c9ab383	0.018884426
108	0xbbc27e81	-0.0059354906
109	0xbca3831d	-0.01995998
110	0xbadc2c21	-0.0016797819
111	0xba566b29	-0.000817942
112	0x3bb741b4	0.005592549
113	0xbb8fd855	-0.0043898025
114	0x3c5fd80f	0.013662352
115	0xbc26e674	-0.01018678
116	0xbc20d930	-0.009817407
117	0xbc058716	-0.008149883
118	0x3b2fe8f5	0.0026841734
119	0x3c96cb3a	0.018407453
120	0xbb09e845	-0.0021042984
121	0x3c8f669a	0.017504979
122	0x3c940428	0.018068388
123	0xbc5f2883	-0.013620499
124	0xbb58440f	-0.003299955
125	0xbc55b49f	-0.013043552
126	0x3c08624b	0.008324216
127	0xbc2ab9d8	-0.010420285
128	0x3bae4b57	0.00531904
129	0xbaa15ba7	-0.001231064
130	0xbc993373	-0.01870129
131	0xbc9a18a0	-0.01881057
132	0xbcd0c726	-0.025485586
133	0xbc7484e4	-0.014924262
134	0x3bab64cd	0.0052305222
135	0xb70aba78	-8.268857e-06
136	0x3c8858e6	0.016643953
137	0xbcbca43a	-0.023027528
138	0xbb265b07	-0.0025383846
139	0xbcc243c9	-0.023713963
140	0xbaf788f8	-0.0018885424
141	0x3bd626f8	0.006535407
142	0xbccb7476	-0.024835806
143	0x3c93e2d2	0.018052492
144	0xbc3463f0	-0.011010155
145	0x3c987b70	0.018613547
146	0xbbcb38b6	-0.006201829
147	0x3c3e77c0	0.01162523
148	0x3ca399b9	0.019970762
149	0xbc340c4c	-0.01098926
150	0xbc01b7b3	-0.007917332
151	0x3c302387	0.010750658
152	0xbcbaf2da	-0.022820879
153	0x3c47219f	0.012154012
154	0xbc939abd	-0.01801812
155	0x3c9f5b50	0.01945272
156	0xbca2b505	-0.019861707
157	0xbc65a494	-0.014016289
158	0x3c6bb88c	0.014387261
159	0xbc62ef78	-0.013851039
160	0x3c93d6da	0.018046785
161	0x3c667708	0.014066465
162	0x3c9f43ef	0.019441573
163	0xbcd704d0	-0.026247412
164	0xbb1e6b20	-0.0024172738
165	0xbc2eb4cb	-0.010663222
166	0x3b4651c6	0.0030261143
167	0xbcafa3ba	-0.021440376
168	0x3bd1e302	0.0064052353
169	0xbc1d3b38	-0.009596638
170	0xbcaa0c50	-0.020757824
171	0xbd056c38	-0.03257391
172	0x3b66bfd6	0.0035209558
173	0xbc8c655d	-0.017138178
174	0x3c2d0385	0.010559921
175	0xbb374697	-0.0027965659
176	0x3aabc088	0.0013103643
177	0xbc29b3c6	-0.010357803
178	0xbc1db2e7	-0.009625173
179	0xbc842b87	-0.016134037
180	0xbcf5dcc2	-0.030012492
181	0x3bf51bf6	0.00748014
182	0xbccd9efa	-0.02510022
183	0x3ba82348	0.005131159
184	0xbc914ccc	-0.017736815
185	0x3bb35930	0.0054732785
186	0x3c49fc11	0.012328164
187	0xbcbeaca8	-0.023275688
188	0x3c4699c3	0.012121621
189	0xbbfb1ab8	-0.007663097
190	0xbce49aa8	-0.027905777
191	0x3a7dfe2f	0.00096890604
192	0x3c01db3a	0.007925803
193	0x3c7878a1	0.015165479
194	0xbce46d29	-0.027884083
195	0x3c33a292	0.010964053
196	0x3be2e9da	0.00692485
197	0x3c56635a	0.013085211
198	0x3ac81158	0.0015263958
199	0xbcc8ea96	-0.024525922
200	0x3bc18d8f	0.0059067677
201	0x3c37139a	0.011174107
202	0xbcacd62a	-0.021098215
203	0xbc8cd440	-0.017191052
204	0x3c0b1b95	0.008490463
205	0x3c2e8166	0.010650968
206	0x3c42f844	0.011900011
207	0x3c7daa85	0.01548255
208	0xbce10be5	-0.027471492
209	0xbc9aa704	-0.018878467
210	0xbcc07a97	-0.023495955
211	0xbb1a14cb	-0.0023510929
212	0xbc0c49f9	-0.008562558
213	0xbd0f89c2	-0.035043485
214	0xbc981b41	-0.018567683
215	0xbd0fd136	-0.03511163
216	0xbd1e7144	-0.038682237
217	0x3bc99e09	0.0061528725
218	0xbcdb915f	-0.026802717
219	0x3ad92f4d	0.0016569883
220	0xbc19a8f2	-0.009378659
221	0xbca9fb0c	-0.020749591
222	0xbc8bb50c	-0.017054103
223	0x3b30e545	0.0026992124
224	0xbca204c5	-0.019777665
225	0x3b90b43c	0.004416017
226	0xbb8eed4c	-0.004361784
227	0xba8a5123	-0.0010552745
228	0xbd1bef42	-0.03806997
229	0xbce75a18	-0.028241202
230	0xbd1713ae	-0.036884002
231	0xbcb07459	-0.021539854
232	0xbc9774f5	-0.018488387
233	0xbb43f085	-0.0029898
234	0x3c09026c	0.008362394
235	0xbba93416	-0.00516368
236	0xbd0b4140	-0.033997774
237	0xbcfe090d	-0.031010175
238	0x3b5df210	0.0033866204
239	0xbc72d35d	-0.014820901
240	0xbc23c6d3	-0.009996134
241	0xbce92cb6	-0.028463703
242	0xbc93ed7c	-0.018057577
243	0xbc15787f	-0.009122967
244	0xbd03584f	-0.03206664
245	0x3a97f2a9	0.0011592704
246	0x3867602b	5.5164255e-05
247	0xbce44f7c	-0.027869932
248	0xbccabca2	-0.02474815
249	0xbcbbda51	-0.02293125
250	0xbc3c713a	-0.011501605
251	0xbcbf7287	-0.02337004
252	0x3bb6bd26	0.0055767475
253	0xbd286a22	-0.04111684
254	0xbcfd9bbe	-0.030958053
255	0xbd00291e	-0.031289212

classifier.1.bias f4 [3]
0	0x3bf68d70	0.007524185
1	0xbc093aaa	-0.008375803
2	0xbca746a1	-0.02041942
