models/05_going_modular_script_mode_tinyvgg_model.pth (torch, 37218 bytes, 10 tensors)

conv_block_1.0.weight f4 [10, 3, 3, 3]
0.15775742 0.1710978 -0.03317682 0.18676008 -0.03186773 0.049296338 -0.084181085 0.122488916
0.17912325 -0.13517457 0.17446434 0.043628477 0.14760974 0.032395072 0.09908556 -0.02209117
0.15393497 0.033515513 -0.08210469 0.058362696 -0.07885519 -0.015752932 -0.06995511 0.1358094
-0.14563492 -0.08155547 -0.047875877 -0.12798335 0.003951369 -0.20683162 0.1628612 -0.17536667
0.13604812 0.02084304 -0.07272217 0.10776651 0.020686332 0.14224897 0.0045326087 -0.0702525
0.03971025 -0.06801775 0.067416176 0.15776975 0.09587948 -0.08680117 0.10425974 0.022615053
0.09319472 -0.12393245 -0.1989537 -0.08517344 -0.15869872 0.14718492 0.04316586 0.06729047
0.04744704 -0.014200705 0.1392269 -0.14907742 0.0011504586 -0.14238667 0.04766183 -0.07142031
0.053311594 -0.04722634 0.15531239 -0.119276695 -0.12137913 -0.11895216 0.16855891 0.058292303
0.18230051 -0.16201456 -0.19600266 -0.15213263 -0.1319375 0.07354452 0.0682086 0.15866254
-0.10246037 -0.1261238 0.10682544 -0.07300914 0.12247568 -0.040231455 0.11538383 -0.14441898
-0.09178461 0.06390047 0.05374887 -0.03630795 0.12662697 0.14414786 -0.12572065 -0.08962902
0.18880834 -0.051360328 -0.054803416 -0.16788359 -0.092179775 0.06424227 -0.006696161 -0.120209664
0.0225025 -0.1128093 -0.14339583 -0.08943945 -0.15216728 -0.10409643 0.20933837 0.0503311
0.07447601 -0.16077475 -0.11337646 -0.049915764 0.047704067 -0.1521404 -0.06573866 -0.099382386
0.015755402 -0.05542065 0.0034908927 -0.11644605 -0.11784716 -0.09417778 -0.049428184 -0.13619056
0.1755675 -0.024117637 0.17993079 0.0742088 -0.14938071 0.14601469 -0.036734182 -0.0838427
-0.17412551 -0.20578988 0.049350925 -0.04945741 0.06591389 -0.16517438 0.13257734 -0.15064435
-0.046821654 0.024873842 0.08398667 0.14468968 0.16366749 -0.16322793 0.037946578 -0.093718275
-0.03080766 -0.15965636 0.15865406 -0.15779522 0.089893974 0.053812932 0.049281016 -0.115946434
0.1623962 0.030516824 0.02088034 -0.16787681 0.08185638 -0.0302828 -0.08903653 0.1604734
0.039865926 -0.1072126 -0.10308721 -0.011208789 0.10389975 -0.05237048 -0.108105585 -0.06522422
-0.14665164 0.06687746 0.14953092 -0.18127316 0.043869678 0.096878685 0.031396776 -0.06629219
0.10218253 0.09891791 0.07094802 -0.03209218 -0.04904274 0.02661158 -0.028050782 -0.050675478
0.12981577 0.17104071 -0.014014365 -0.03645358 0.008105256 -0.0069952216 0.049485262 0.05784475
-0.16958724 -0.06755416 0.16547436 0.078502215 -0.006371703 -0.11347457 -0.11546198 -0.16709244
-0.05709739 0.07169184 0.12731014 0.093164794 -0.16563356 -0.112096556 -0.027700488 0.18837042
0.032466274 -0.045705613 0.08460376 -0.06669077 -0.11990916 0.14524284 -0.07890935 -0.030203475
-0.18463965 0.13654293 0.1530517 0.078961864 -0.12321267 -0.18013184 -0.14720811 0.15568762
0.104991585 0.17334415 0.10687893 0.05399694 0.004958824 -0.13666342 -0.15802607 -0.17337185
0.08914125 -0.08365096 -0.028486498 -0.11075604 -0.03506894 -0.13545309 -0.1257499 0.063837774
-0.057195473 0.118807755 -0.061739676 -0.14117508 -0.03395569 -0.09328968 -0.058878485 -0.18321164
00000000: 298b 213e 4334 2f3e 6be4 07bd 093e 3f3e
00000010: bd87 02bd f5ea 493d 2267 acbd 78db fa3d
00000020: 166c 373e 346b 0abe c8a6 323e c6b3 323d
00000030: 0227 173e b2b0 043d 5fed ca3d 8bf8 b4bc
00000040: 21a1 1d3e 9047 093d 8126 a8bd b90d 6f3d
00000050: d47e a1bd 4b0c 81bc a044 8fbd 9f11 0b3e
00000060: 5221 15be 8e06 a7bd 7f19 44bd 110e 03be
00000070: 7c7a 813b abcb 53be 16c5 263e 5293 33be
00000080: 3350 0b3e 06bf aa3c 5cef 94bd b0b4 dc3d
00000090: 6276 a93c b7a9 113e 4786 943b 8be0 8fbd
000000a0: 37a7 223d e44c 8bbd 7e11 8a3d 658e 213e
000000b0: 765c c43d d0c4 b1bd 2186 d53d 3443 b93c
000000c0: e0dc be3d 4cd0 fdbd 85ba 4bbe 6a6f aebd
000000d0: eb81 22be a5b7 163e afce 303d 96cf 893d
000000e0: d457 423d 13aa 68bc 7f91 0e3e c0a7 18be
000000f0: fcca 963a d0cd 11be 0d39 433d d044 92bd
00000100: 425d 5a3d 6870 41bd 360a 1f3e 5747 f4bd
00000110: 9f95 f8bd 319d f3bd b59a 2c3e e9c3 6e3d
00000120: fcac 3a3e 25e7 25be ecb4 48be a8c8 1bbe
00000130: a01a 07be 829e 963d f3b0 8b3d 6f78 223e
00000140: bed6 d1bd 9926 01be 4cc7 da3d d185 95bd
00000150: 88d4 fa3d bdc9 24bd 5c4e ec3d 92e2 13be
00000160: 92f9 bbbd 40de 823d c627 5c3d a5b7 14bd
00000170: 80aa 013e 7f9b 133e eabc 00be 6b8f b7bd
00000180: f956 413e 355f 52bd 8c79 60bd ade9 2bbe
00000190: c0c8 bcbd 7491 833d 786b dbbb 7c30 f6bd
000001a0: 2a57 b83c 9008 e7bd 5bd6 12be 082c b7bd
000001b0: bdd1 1bbe 8230 d5bd cc5c 563e fc27 4e3d
000001c0: e186 983d 23a2 24be eb31 e8bd 7974 4cbd
000001d0: 5765 433d b1ca 1bbe fea1 86bd fe88 cbbd
000001e0: 7911 813c c300 63bd 76c7 643b 447b eebd
000001f0: da59 f1bd 48e0 c0bd 3575 4abd 8a75 0bbe
00000200: f7c7 333e 5a92 c5bc c73f 383e c9fa 973d
00000210: 42f7 18be e084 153e 9576 16bd b9b5 abbd
00000220: f54d 32be 95ba 52be 3224 4a3d da93 4abd
00000230: ddfd 863d 7923 29be 5bc2 073e 8342 1abe
00000240: 10c8 3fbd 3ac4 cb3c 3401 ac3d 8829 143e
00000250: 7398 273e 3925 27be df6d 1b3d 5eef bfbd
00000260: 5960 fcbc f57c 23be 3676 223e 1295 21be
00000270: 551a b83d f36a 5c3d e4da 493d 5375 edbd
00000280: 304b 263e 6bfe f93c 3f0d ab3c e6e7 2bbe
00000290: 51a4 a73d a213 f8bc c958 b6bd 2453 243e
000002a0: 744a 233d 4892 dbbd 631f d3bd 12a5 37bc
000002b0: 64c9 d43d 6e82 56bd 7666 ddbd 4794 85bd
000002c0: d92b 16be 0df7 883d a21e 193e ac9f 39be
000002d0: b1b0 333d 5568 c63d e899 003d 33c4 87bd
000002e0: 1345 d13d 7995 ca3d 324d 913d 1773 03bd
000002f0: 0ae1 48bd 8700 da3c c1ca e5bc 1791 4fbd
00000300: 6dee 043e 4c25 2f3e 829c 65bc 5950 15bd
00000310: e8cb 043c 2c38 e5bb 0fb1 4a3d 9eee 6c3d
00000320: 47a8 2dbe d659 8abd 1c72 293e c5c5 a03d
00000330: b8c9 d0bb 5b65 e8bd 5577 ecbd 481a 2bbe
00000340: f4de 69bd 2cd3 923d 975d 023e 2fcd be3d
00000350: d89b 29be e192 e5bd 22ec e2bc 2de4 403e
00000360: 5bfb 043d cf35 3bbd bc44 ad3d 2c95 88bd
00000370: ef92 f5bd 8aba 143e 3a9b a1bd 476d f7bc
00000380: 2d12 3dbe e9d1 0b3e 96b9 1c3e c2b6 a13d
00000390: ed56 fcbd 7b74 38be b9bd 16be 936c 1f3e
000003a0: d405 d73d 2181 313e 57e3 da3d e52b 5d3d
000003b0: a17d a23b 7ff1 0bbe 96d1 21be 6488 31be
000003c0: b08f b63d 3251 abbd 845c e9bc 10d4 e2bd
000003d0: 73a4 0fbd 37b4 0abe 95c4 00be 61bd 823d
000003e0: cd45 6abd 7b51 f33d bee2 7cbd 3390 10be
000003f0: 1f15 0bbd a90e bfbd 912a 71bd d59b 3bbe

conv_block_1.0.bias f4 [10]
0.085903294 -0.20331123 0.11684713 0.16287902 0.20046706 -0.055805914 -0.16115712 0.056928743
0.12440086 -0.19154726
00000000: 11ee af3d d230 50be 8c4d ef3d c2c9 263e
00000010: 3d47 4d3e be94 64bd 5f06 25be 1d2e 693d
00000020: e1c5 fe3d f724 44be

conv_block_1.2.weight f4 [10, 10, 3, 3]
-0.017968426 -0.056380834 -0.0014724148 -0.041657608 -0.033437096 -0.024604151 -0.087762654 0.0981399
0.098457195 -0.008110666 0.00011391277 -0.030935394 -0.09671727 -0.09913817 0.043335654 -0.04520002
-0.053500544 -0.0016171023 -0.01982547 -0.019428348 0.01842426 -0.006275247 -0.019045344 -0.034098964
-0.070350476 0.10484553 -0.026171723 0.048414163 -0.0141470395 0.030281471 0.11451217 0.06568648
-0.07166221 0.058156017 0.115204826 0.045072425 0.0981035 0.1345943 0.014462686 0.041834075
-0.051217247 0.0044948068 0.09626381 0.070828296 -0.049304735 -0.08406952 -0.07809306 -0.10688374
-0.07552209 -0.030475374 0.069555156 0.009873396 -0.08629109 -0.075760596 0.050744414 -0.090483285
-0.015202191 0.042881664 -0.046080016 -0.0172483 -0.018755192 -0.03182175 -0.05908897 -0.07845439
-0.07166175 -0.047237087 0.11554714 -0.039221812 -0.060333144 0.03887826 0.04303548 0.07158999
0.091368034 0.07480406 -0.08171152 0.024589512 0.07926719 0.0053812643 -0.047324993 0.115894526
-0.023102107 -0.060014185 -0.09503225 0.004708454 0.04671033 0.023333691 0.020844653 -0.07994106
-0.098440364 0.0018561893 0.09824446 0.062213488 -0.060133003 -0.011610315 -0.07617017 -0.049848348
0.020946205 0.058667753 0.088243976 -0.096022576 0.06976899 -0.07852386 0.0439573 0.0902005
0.0007644361 0.10142381 -0.08189794 -0.032292515 0.06268231 -0.022337787 -0.021798395 -0.04309725
0.07341073 0.05132706 0.034977153 -0.057798926 -0.084782384 0.011114414 0.03406565 -0.046225104
-0.026743105 0.07557675 0.013160438 0.008429698 -0.019886136 -0.08742267 -0.095770076 -0.048057664
-0.0460555 0.04061062 -0.020058556 -0.026952555 0.11436588 0.05083372 0.09230514 -0.040499933
-0.04686094 0.040130164 -0.062076956 -0.07329258 -0.011512085 -0.04741677 -0.08585924 0.073765695
0.07689243 0.030910017 -0.009265867 -0.10393468 -0.035590746 0.01623921 0.04491944 -0.012324298
-0.033574373 0.061617587 -0.08135011 0.0684556 -0.037801567 0.0017371634 -0.02192902 0.012610502
-0.031176306 0.075467505 0.0003767469 0.08807767 0.10754361 -0.04505422 -0.07125733 0.08800388
0.09435988 -0.06983754 -0.00044157135 -0.10394684 -0.08628792 0.020359011 0.02804251 0.022344766
-0.028688679 0.097248234 0.0150712 -0.0622004 -0.004054441 0.03178867 0.0442295 -0.07133243
0.04270985 -0.052513037 -0.07754339 -0.05357939 0.10428318 0.09010993 0.096212074 0.061876416
0.07963137 -0.0141090015 -0.05799911 0.052668426 -0.05462126 -0.07113711 -0.024911653 0.02755782
0.062467203 -0.028808603 -0.04972722 0.025113575 -0.04998415 -0.05663732 0.06767315 -0.005947995
0.108274914 0.11521508 0.043334845 0.04847162 0.036015946 0.009715067 0.0043864134 0.013283778
0.05173871 0.11168592 -0.018020784 -0.0320635 -0.0130358 -0.03960476 0.024111884 0.090810634
0.094329625 0.04442025 -0.07472399 -0.05657365 -0.024480905 -0.017371694 0.008430391 -0.09758192
0.03132091 -0.0829025 -0.06669714 -0.09012951 0.08404888 -0.099816225 0.07951724 -0.0035435325
-0.012258969 0.06593122 -0.009742726 0.06900763 0.07619108 -0.08835365 0.046209868 0.024425115
0.03249803 0.026491111 0.036416348 -0.046092216 -0.0029369975 0.11053279 0.08164253 0.007094848
00000000: 8532 93bc 97ef 66bd 0bfe c0ba 2ba1 2abd
00000010: 56f5 08bd a58e c9bc e8bc b3bd 92fd c83d
00000020: eda3 c93d 99e2 04bc 74e4 ee38 396c fdbc
00000030: b413 c6bd f408 cbbd ba80 313d a823 39bd
00000040: 6323 5bbd f3f4 d3ba 0669 a2bc 3328 9fbc
00000050: 79ee 963c 96a0 cdbb fb04 9cbc 5bab 0bbd
00000060: e913 90bd 41b9 d63d 1566 d6bc ee4d 463d
00000070: fcc8 67bc d910 f83c 5b85 ea3d a286 863d
00000080: a3c3 92bd 0135 6e3d 82f0 eb3d dd9d 383d
00000090: 7dea c83d 17d3 093e e7f4 6c3c 355a 2b3d
000000a0: 2dc9 51bd 2c49 933b f625 c53d 6d0e 913d
000000b0: c3f3 49bd a42c acbd 41ef 9fbd dde5 dabd
000000c0: 53ab 9abd 7ea7 f9bc ef72 8e3d 06c4 213c
000000d0: 62b9 b0bd 5f28 9bbd 60d9 4f3d 4d4f b9bd
000000e0: 9c12 79bc afa4 2f3d 66be 3cbd 4f4c 8dbc
000000f0: 7da4 99bc 8657 02bd 4707 72bd b2ac a0bd
00000100: 65c3 92bd ad7b 41bd fba3 ec3d 0da7 20bd
00000110: e31f 77bd cf3e 1f3d f945 303d c69d 923d
00000120: 2a1f bb3d df32 993d 5f58 a7bd f26f c93c
00000130: d656 a23d 5155 b03b dad7 41bd 1c5a ed3d
00000140: a140 bdbc 6fd1 75bd 45a0 c2bd 6049 9a3b
00000150: 5553 3f3d 4c26 bf3c 68c2 aa3c 23b8 a3bd
00000160: 1a9b c9bd 614b f33a 6434 c93d 92d3 7e3d
00000170: 064e 76bd 3139 3ebc 1bff 9bbd c82d 4cbd
00000180: 6097 ab3c 994d 703d 42b9 b43d 7ca7 c4bd
00000190: 0be3 8e3d 1ed1 a0bd 920c 343d 0abb b83d
000001a0: 7064 483a 49b7 cf3d 1bba a7bd 2845 04bd
000001b0: 955f 803d bcfd b6bc 8c92 b2bc be86 30bd
000001c0: 5d58 963d 533c 523d 3444 0f3d 91be 6cbd
000001d0: 63a2 adbd 3b19 363c 6c88 0b3d 8956 3dbd
000001e0: 5b14 dbbc fcc7 9a3d e19e 573c b71c 0a3c
000001f0: 40e8 a2bc a80a b3bd 1a23 c4bd 1dd8 44bd
00000200: b1a4 3cbd 5257 263d d751 a4bc 9bcb dcbc
00000210: a938 ea3d 0537 503d 7a0a bd3d 42e3 25bd
00000220: 42f1 3fbd 875f 243d 6844 7ebd 6c1a 96bd
00000230: 2f9d 3cbc 1638 42bd f8d6 afbd 7812 973d
00000240: c779 9d3d 0137 fd3c ddcf 17bc b5db d4bd
00000250: 9ac7 11bd 1708 853c 72fd 373d daeb 49bc
00000260: 4885 09bd b962 7c3d e39a a6bd 7332 8c3d
00000270: d1d5 1abd 88b1 e33a 7da4 b3bc 479c 4e3c
00000280: 7465 ffbc b58e 9a3d 1d86 c539 1162 b43d
00000290: d33f dc3d c68a 38bd 5def 91bd 613b b43d
000002a0: c13f c13d fc06 8fbd b482 e7b9 15e2 d4bd
000002b0: b9b7 b0bd f1c7 a63c 68b9 e53c 5f0c b73c
000002c0: 8504 ebbc 152a c73d 32ed 763c d9c5 7ebd
000002d0: 1edb 84bb d634 023d fe29 353d bd16 92bd
000002e0: 86f0 2e3d e917 57bd 12cf 9ebd 1076 5bbd
000002f0: 6b92 d53d 8e8b b83d d60a c53d 2072 7d3d
00000300: c615 a33d 7129 67bc 7a90 6dbd d9ba 573d
00000310: 8bba 5fbd 55b0 91bd 8613 ccbc f0c0 e13c
00000320: 9cdd 7f3d 0500 ecbc c5ae 4bbd fcba cd3c
00000330: 2ebc 4cbd 89fc 67bd 3898 8a3d 66e7 c2bb
00000340: 3dbf dd3d e2f5 eb3d e17f 313d 2d8a 463d
00000350: 7585 133d f22b 1f3c e7bb 8f3b 34a4 593c
00000360: f8eb 533d 96bb e43d 53a0 93bc 0455 03bd
00000370: 1c94 55bc 9a38 22bd 4986 c53c edfa b93d
00000380: e42f c13d 02f2 353d e408 99bd c6b9 67bd
00000390: 2e8c c8bc 154f 8ebc 9f1f 0a3c 08d9 c7bd
000003a0: 5b4a 003d c9c8 a9bd 8398 88bd d295 b8bd
000003b0: d221 ac3d 736c ccbd efd9 a23d 9c3a 68bb
000003c0: d8d9 48bc f306 873d f49f 1fbc df53 8d3d
000003d0: 120a 9c3d c2f2 b4bd 8f46 3d3d 2e17 c83c
000003e0: a81c 053d e303 d93c 4f29 153d 31cb 3cbd
000003f0: a47a 40bb 045f e23d 3334 a73d e67b e83b

conv_block_1.2.bias f4 [10]
0.022756912 0.023753751 -0.08026514 -0.090335615 0.0049319225 -0.043804344 0.0032395758 -0.022836464
0.032248616 0.05389753
00000000: b46c ba3c 3a97 c23c 0d62 a4bd e101 b9bd
00000010: f79b a13b 2f6c 33bd 104f 543b 8913 bbbc
00000020: 2017 043d a8c3 5c3d

conv_block_2.0.weight f4 [10, 10, 3, 3]
-0.065805644 0.053834386 0.05303332 -0.10960108 -0.10947621 -0.11407906 -0.082665525 -0.06888694
-0.03703084 -0.023546446 -0.05105467 -0.030925876 -0.0359794 0.10545565 -0.036773197 -0.07406291
0.045267124 -0.0044466127 0.072775476 0.05606713 0.08929062 -0.08384944 0.059811637 0.08409119
-0.05484325 0.08896196 0.07296207 0.0054499987 0.053866297 -0.040635377 -0.0874362 0.023383388
0.034770828 -0.06461964 0.04849312 -0.08844303 0.077958636 0.087869085 0.015968593 -0.07906025
0.038278524 0.0047959727 0.015324069 0.021853486 0.06889693 -0.04876011 -0.03598325 0.020772723
0.015034266 0.083621785 -0.0648226 -0.01457667 0.013507842 -0.029013721 0.05233452 -0.007431264
-0.120194115 -0.028034644 -0.06588115 -0.012167283 -0.025361693 -0.11831635 -0.037328564 0.009570418
-0.011882642 0.11518428 -0.0029311622 0.0870367 0.044790298 -0.07044813 0.042917985 0.10527837
-0.07573891 -0.079301156 0.09734891 0.075519934 -0.072005 0.057747677 -0.02387165 -0.112637505
0.0008498674 0.038412403 -0.027173268 0.041150704 -0.08581458 0.07718223 0.094205685 0.061466847
0.021445937 0.038036257 -0.04752677 -0.0015438335 0.017612023 -0.027665325 -0.04897991 0.09611856
0.100211 -0.07373458 0.056689087 0.05212763 0.10867832 0.071636625 0.10496649 -0.027142411
0.08185693 0.09352872 -0.09140668 -0.07566169 0.035732746 0.06931448 -0.041284442 0.015347842
0.010672111 0.038599152 -0.04776599 0.06414881 0.07852919 -0.07313909 0.0010211441 0.00029246812
0.033848573 0.098197624 0.03091268 -0.0239513 0.094671525 -0.040111687 -0.015410869 0.020597419
-0.07953641 0.010021853 -0.06800847 0.016535569 0.022098705 0.025437241 -0.08686911 -0.10022308
0.04465235 0.096881114 -0.08874028 0.03826551 -0.07329637 0.009512594 0.10643215 0.07185988
-0.058566846 0.09091717 0.083353564 0.033429787 0.13554008 -0.016854087 0.0044085965 -0.024938375
0.044209477 0.025216391 0.005197029 -0.05878002 -0.045306757 0.032125838 -0.09583759 -0.014815629
-0.0067573027 -0.043645624 0.06524477 0.037568506 0.09528264 0.017856497 -0.045363285 0.091294356
0.040700097 -0.0043143746 -0.051441085 0.03001494 -0.09632822 0.03229906 0.058160413 -0.08564277
-0.06337167 -0.06911486 0.09518216 0.09684989 -0.02419508 0.06924773 -0.06463371 -0.1322749
0.0073739393 0.008633466 0.07462774 -0.029204668 0.05057529 0.063138545 0.075141296 -0.10573648
0.08513011 -0.09121392 0.092934445 -0.006947784 -0.09555859 0.02725885 -0.026683737 -0.10504219
-0.045274615 0.0028445865 0.076474816 -0.034009494 0.05203435 0.0065846555 0.0007219353 0.023956671
-0.07294446 -0.092052005 -0.03623931 -0.10038149 -0.045148145 0.0023750442 -0.06558543 -0.043206234
-0.030811049 -0.024242813 -0.07217151 -0.0062067965 -0.02638998 0.018257657 -0.006553717 -0.063947044
-0.04683329 -0.0119015025 -0.07826088 -0.00044170677 -0.01551571 0.031937618 0.014512966 0.069621414
-0.011030938 -0.08573364 0.018849032 -0.09931977 -0.040222067 -0.06153305 -0.06878461 -0.06807607
0.07229756 0.034958262 0.0010488271 0.1199422 -0.07467813 0.03902854 0.08784488 0.09075492
-0.062283736 0.055536 -0.04093295 0.014067342 -0.04213307 -0.10390124 -0.11782685 -0.08950631
00000000: 1cc5 86bd 7281 5c3d 7739 593d 8876 e0bd
00000010: 1035 e0bd 48a2 e9bd 8b4c a9bd 9914 8dbd
00000020: a6ad 17bd 7ae4 c0bc b41e 51bd 4358 fdbc
00000030: 235f 13bd 22f9 d73d 7e9f 16bd 4cae 97bd
00000040: 056a 393d e4b4 91bb 4f0b 953d a6a6 653d
00000050: 00de b63d 41b9 abbd 0cfd 743d 0038 ac3d
00000060: 51a3 60bd b031 b63d 236d 953d e795 b23b
00000070: e8a2 5c3d 4871 26bd c011 b3bd 858e bf3c
00000080: db6b 0e3d 4d57 84bd b9a0 463d 9f21 b5bd
00000090: c7a8 9f3d b5f4 b33d 91d0 823c 57ea a1bd
000000a0: f1c9 1c3d 8927 9d3b ce11 7b3c 1506 b33c
000000b0: d519 8d3d aeb8 47bd 2c63 13bd 8f2b aa3c
000000c0: 4852 763c e641 ab3d b6c1 84bd fcd2 6ebc
000000d0: ff4f 5d3c 2fae edbc b95c 563d f681 f3bb
000000e0: 5528 f6bd e9a8 e5bc b2ec 86bd 4959 47bc
000000f0: 53c3 cfbc d84f f2bd d6e5 18bd 3ecd 1c3c
00000100: 6aaf 42bc bce5 eb3d be18 40bb 4c40 b23d
00000110: 0876 373d 1c47 90bd c5ca 2f3d 309c d73d
00000120: 001d 9bbd a568 a2bd de5e c73d 32aa 9a3d
00000130: 5c77 93bd d488 6c3d 7b8e c3bc 7eae e6bd
00000140: a3c9 5e3a 5356 1d3d 799a debc a48d 283d
00000150: 8ebf afbd b811 9e3d e9ee c03d a9c4 7b3d
00000160: 64af af3c e8cb 1b3d 6eab 42bd 755a caba
00000170: 1747 903c 64a2 e2bc 289f 48bd cfd9 c43d
00000180: 6d3b cd3d 2802 97bd d132 683d c883 553d
00000190: bd92 de3d 39b6 923d acf8 d63d c359 debc
000001a0: 9ba4 a73d fc8b bf3d 6d33 bbbd 84f4 9abd
000001b0: 805c 123d c0f4 8d3d e019 29bd 8475 7b3c
000001c0: 14da 2e3c 251a 1e3d 45a6 43bd 7460 833d
000001d0: e9d3 a03d f2c9 95bd e9d7 853a 6856 9939
000001e0: cda4 0a3d d61b c93d 973c fd3c 8435 c4bc
000001f0: 25e3 c13d 274c 24bd df7d 7cbc ebbb a83c
00000200: fce3 a2bd b332 243c 0648 8bbd 9a75 873c
00000210: 5808 b53c c361 d03c 6fe8 b1bd c241 cdbd
00000220: 62e5 363d 9b69 c63d 77bd b5bd 4cbc 1c3d
00000230: 681c 96bd b6da 1b3c 19f9 d93d 462b 933d
00000240: cae3 6fbd c832 ba3d 46b5 aa3d aced 083d
00000250: 05cb 0a3e 9511 8abc fd75 903b 904b ccbc
00000260: ff14 353d 9b92 ce3c d74b aa3b 51c3 70bd
00000270: 9493 39bd 6296 033d 8046 c4bd 41bd 72bc
00000280: 5d6c ddbb c1c5 32bd 0d9f 853d 6fe1 193d
00000290: 8b23 c33d ca47 923c dace 39bd 89f8 ba3d
000002a0: 25b5 263d 995f 8dbb e3b3 52bd e4e1 f53c
000002b0: bb47 c5bd 054c 043d 9d39 6e3d 7a65 afbd
000002c0: 02c9 81bd 178c 8dbd ddee c23d 3c59 c63d
000002d0: c334 c6bc c1d1 8d3d ae5e 84bd 1273 07be
000002e0: 16a1 f13b 6273 0d3c 6ed6 983d a13e efbc
000002f0: 0928 4f3d c84e 813d aee3 993d 5e8c d8bd
00000300: b258 ae3d 5dce babd 6a54 be3d 3daa e3bb
00000310: 39b4 c3bd f44d df3c da97 dabc 5c20 d7bd
00000320: e071 39bd 3e6c 3a3b d49e 9c3d 8a4d 0bbd
00000330: f821 553d 18c4 d73b 4240 3d3a c840 c43c
00000340: e863 95bd c385 bcbd ac6f 14bd d094 cdbd
00000350: 43ed 38bd a1a6 1b3b a751 86bd 05f9 30bd
00000360: 7467 fcbc dd98 c6bc a8ce 93bd 6262 cbbb
00000370: cd2f d8bc 1591 953c 90c0 d6bb abf6 82bd
00000380: 44d4 3fbd 85fe 42bc 3e47 a0bd e194 e7b9
00000390: 9b35 7ebc 05d1 023d cbc7 6d3c ac95 8e3d
000003a0: 1bbb 34bc 1e95 afbd 4969 9a3c 2a68 cbbd
000003b0: e5bf 24bd 140a 7cbd f2de 8cbd 776b 8bbd
000003c0: be10 943d 6530 0f3d cc78 893a 42a4 f53d
000003d0: d9f0 98bd 64dc 1f3d 04e8 b33d b7dd b93d
000003e0: 3b1d 7fbd b779 633d 4fa9 27bd b57a 663c
000003f0: ba93 2cbd 2cca d4bd 344f f1bd 164f b7bd

conv_block_2.0.bias f4 [10]
0.027846405 -0.0012277286 0.019036995 0.065094404 -0.058999207 -0.049697876 0.04946049 0.0041980487
-0.011601152 -0.09259024
00000000: 251e e43c bceb a0ba 79f3 9b3c 3750 853d
00000010: 27a9 71bd 0090 4bbd 1597 4a3d c98f 893b
00000020: c212 3ebc f49f bdbd

conv_block_2.2.weight f4 [10, 10, 3, 3]
0.07630221 -0.015518223 -0.029777378 -0.053973943 -0.028597524 0.04272528 -0.01267382 0.08161416
-0.01461513 -0.032944106 0.055196803 -0.0053669363 -0.036802284 0.017174564 0.0708473 0.010854355
0.06007243 0.04923034 0.014525266 0.021190513 0.019699119 -0.0032183076 0.076766334 0.08483241
0.025115449 -0.016609991 0.0845066 -0.099336885 0.06042784 0.03927938 0.050970744 -0.024323914
-0.094165094 0.059677415 -0.061171215 0.013174754 0.061218712 -0.09597434 0.002650999 -0.033599835
0.0761287 -0.06534009 0.061071448 0.0687787 0.05529709 0.109788135 0.026225533 -0.09094379
0.06673925 0.009728267 0.013975803 -0.10228308 -0.028506769 -0.046580445 0.083563454 0.05630328
0.05942736 0.0528256 -0.08477858 -0.06421203 -0.060514685 -0.06166252 0.06308196 0.03493132
0.08845477 -0.00217033 -0.08768047 -0.018299622 0.08241351 0.06980676 0.04009349 -0.016727753
-0.09838595 -0.05663921 0.054958325 -0.04251764 0.050421316 0.028781062 -0.040486358 0.06420249
-0.033871427 -0.0035019775 -0.04015176 -0.09998822 0.016995998 0.030460037 -0.0530716 0.06466298
-0.094557956 -0.10161206 -0.08029816 -0.052408338 -0.025979342 -0.034856398 0.03332213 -0.105808966
0.0030589553 -0.01084214 0.016562155 0.12089961 0.07505135 -0.038528543 -0.07783544 -0.010918663
-0.025912156 0.05351068 0.023702085 0.10597814 0.02894123 -0.031829916 -0.009480221 0.013169014
-0.025565026 0.07293267 -0.0940086 0.040044047 -0.078437045 -0.099617876 -0.028932525 0.044466235
0.06729251 0.019519374 -0.015930071 -0.012424792 -0.049133435 -0.015807766 -0.0068787504 0.0905494
0.061509147 -0.081397414 0.0065605105 -0.058906157 -0.010937808 -0.078654066 0.02744183 -0.071209356
0.10677984 0.08433167 -0.077891566 -0.09540739 0.01072662 -0.03521869 0.032633338 -0.069592625
0.043197207 -0.09085949 -0.05487717 -0.05532752 0.0512767 -0.002127037 -0.10087344 -0.059402257
-0.048342213 -0.11902172 -0.00987975 0.015992245 -0.04092604 -0.062067755 -0.020572465 -0.0995222
-0.08091436 -0.021392867 0.09364319 -0.032414228 0.052247096 -0.041483857 -0.028059712 -0.10034376
0.08732999 0.1026399 -0.0022139365 0.06697386 0.086218625 0.05235863 0.054287802 -0.10034862
-0.099049985 -0.080905855 0.0329705 -0.09117655 -0.08494788 -0.05628043 -0.10217983 -0.0037579061
0.010967403 -0.065582484 0.066743314 -0.04286615 -0.031959835 0.10671123 0.11278886 0.009388112
-0.049697578 -0.027317144 0.03137647 0.0782663 0.07257063 -0.028486691 -0.10000526 -0.09339558
-0.03489192 0.0014927695 -0.048191454 -0.08489623 0.012356324 -0.08383029 -0.08160492 -0.082431115
-0.025825372 0.09555829 0.044495303 -0.009540466 0.024391009 0.04566548 0.003866705 -0.08189513
-0.060261887 -0.06665933 -0.0004317009 -0.0920404 -0.014085769 -0.03475133 0.10759969 0.08605695
0.066575706 0.007878391 -0.035127845 0.030094225 -0.07397764 -0.048141856 -0.016768849 -0.03063368
-0.09701236 0.045937963 0.09412742 -0.05093663 0.035482835 -0.004732217 0.0034289816 0.013408254
0.09886971 0.021745404 -0.059150245 -0.0517682 0.034065 0.018032989 -0.011531716 -0.030678818
-0.057307396 -0.04871787 -0.067855306 0.005425019 0.029603353 0.08071662 -0.023813365 0.0075461175
00000000: 5544 9c3d 2540 7ebc b0ef f3bc c813 5dbd
00000010: 5b45 eabc b400 2f3d dba5 4fbc 5325 a73d
00000020: 4c74 6fbc 66f0 06bd 0b16 623d 20dd afbb
00000030: febd 16bd acb1 8c3c 6418 913d 77d6 313c
00000040: 820e 763d c1a5 493d 62fb 6d3c ba97 ad3c
00000050: 0c60 a13c 3eea 52bb ab37 9d3d 9dbc ad3d
00000060: eabe cd3c ad11 88bc cc11 ad3d 2371 cbbd
00000070: 2f83 773d 6ae3 203d b3c6 503d f242 c7bc
00000080: a1d9 c0bd 4e70 743d ab8e 7abd ecda 573c
00000090: 79c0 7a3d 328e c4bd 62bc 2d3b fb9f 09bd
000000a0: 5de9 9b3d 06d1 85bd 0e26 7a3d d9db 8c3d
000000b0: 347f 623d 9ad8 e03d eed6 d63c bd40 babd
000000c0: 97ae 883d 4f63 1f3c c4fa 643c cb79 d1bd
000000d0: 0787 e9bc 23cb 3ebd 5123 ab3d 459e 663d
000000e0: 1a6a 733d a85f 583d 64a0 adbd 9981 83bd
000000f0: 3fde 77bd d791 7cbd 1d31 813d 2514 0f3d
00000100: c627 b53d 183c 0ebb d191 b3bd 17e9 95bc
00000110: 6ac8 a83d d9f6 8e3d 1239 243d a408 89bc
00000120: 937e c9bd 84fe 67bd fb1b 613d fa26 2ebd
00000130: 9586 4e3d 43c6 eb3c 06d5 25bd 987c 833d
00000140: c4bc 0abd 6f81 65bb 2c76 24bd a0c6 ccbd
00000150: 313b 8b3c 5487 f93c 9b61 59bd 066e 843d
00000160: 9aa7 c1bd fc19 d0bd 5d73 a4bd 20aa 56bd
00000170: a1d2 d4bc 95c5 0ebd c97c 083d 5fb2 d8bd
00000180: c178 483b 3ba3 31bc 5bad 873c 379a f73d
00000190: 86b4 993d 1bd0 1dbd 3068 9fbd 31e4 32bc
000001a0: bb45 d4bc 042e 5b3d e02a c23c 110b d93d
000001b0: 2916 ed3c 1660 02bd ee52 1bbc d9c2 573c
000001c0: bf6d d1bc b95d 953d 9587 c0bd 3a05 243d
000001d0: 9aa3 a0bd 7504 ccbd e703 edbc 3a22 363d
000001e0: a8d0 893d 18e7 9f3c c87f 82bc 5b91 4bbc
000001f0: 2440 49bd 4a7f 81bc 2467 e1bb f771 b93d
00000200: 04f1 7b3d b0b3 a6bd 8df9 d63b 9547 71bd
00000210: 7e34 33bc 6215 a1bd b0cd e03c 36d6 91bd
00000220: 64af da3d 15b6 ac3d 9d85 9fbd f364 c3bd
00000230: b5be 2f3c 7941 10bd 89aa 053d 9486 8ebd
00000240: 8eef 303d 8a14 babd e2c6 60bd 1c9f 62bd
00000250: 8407 523d c265 0bbb bc96 cebd c84f 73bd
00000260: 7c02 46bd a9c1 f3bd adde 21bc 2b02 833c
00000270: 10a2 27bd c23a 7ebd 9687 a8bc 4cd2 cbbd
00000280: 6eb6 a5bd 1840 afbc 00c8 bf3d c8c4 04bd
00000290: 0d01 563d faea 29bd 7bdd e5bc 0781 cdbd
000002a0: 11da b23d de34 d23d b117 11bb 9729 893d
000002b0: 6493 b03d 0176 563d e35c 5e3d 9483 cdbd
000002c0: b8da cabd f8b1 a5bd 130c 073d c5ba babd
000002d0: 27f9 adbd 4f86 66bd a943 d1bd 3447 76bb
000002e0: 9fb0 333c 1c50 86bd b8b0 883d 6b94 2fbd
000002f0: 51e8 02bd 6b8b da3d d9fd e63d 99d0 193c
00000300: b08f 4bbd 34c8 dfbc 9d84 003d 154a a03d
00000310: e99f 943d ec5c e9bc 8fcf ccbd 2f46 bfbd
00000320: d4ea 0ebd 08a9 c33a 6764 45bd 13de adbd
00000330: 2e72 4a3c 37af abbd 7b20 a7bd a5d1 a8bd
00000340: bb8f d3bc 11b4 c33d b540 363d 9d4f 1cbc
00000350: a7cf c73c ba0b 3b3d 8c68 7d3b a2b8 a7bd
00000360: 2bd5 76bd b084 88bd ea55 e2b9 ad7f bcbd
00000370: ffc7 66bc 6957 0ebd 3a5d dc3d a03e b03d
00000380: d858 883d 5e14 013c 37e2 0fbd 2a88 f63c
00000390: 9781 97bd 6530 45bd d35e 89bc 7cf3 fabc
000003a0: 6bae c6bd 7229 3c3d e0c5 c03d eea2 50bd
000003b0: 7356 113d b710 9bbb c4b8 603b 4bae 5b3c
000003c0: 347c ca3d 6b23 b23c 8747 72bd e40a 54bd
000003d0: be87 0b3d ebb9 933c 86ef 3cbc 2552 fbbc
000003e0: 29bb 6abd 648c 47bd b9f7 8abd 5cc4 b13b
000003f0: bb82 f23c c14e a53d 3f14 c3bc 6c45 f73b

conv_block_2.2.bias f4 [10]
0.06117306 0.080474384 0.046597 -0.09601737 0.0031054195 -0.03956738 -0.029631564 0.068455435
-0.036923215 -0.07549103
00000000: 9a90 7a3d c1cf a43d 7fdc 3e3d c1a4 c4bd
00000010: 4b84 4b3b 6811 22bd e5bd f2bc 5d32 8c3d
00000020: cc3c 17bd 0b9b 9abd

classifier.1.weight f4 [3, 1690]
-0.02207393 0.01297628 -0.0011896221 0.02131163 0.0019508859 -0.025533287 0.0028283307 0.018857533
0.0117662065 0.004209907 -0.021330407 -0.017273715 0.014059772 -0.018561497 0.002962775 -0.005902906
0.0050636153 -0.0015614829 -0.021460442 -0.01273881 0.018439353 0.00015410822 0.009504388 -0.015302888
0.016234173 -0.0081277685 -0.010504295 0.0024091555 -0.011468087 -0.01223109 -0.005975104 -0.0033228935
-0.016048087 0.006229906 -0.025771057 0.012548136 0.019770162 0.0009908486 -0.0089489035 -0.024351787
0.009311646 0.017603584 0.018518027 7.074346e-05 0.006596746 0.0218825 0.0020552468 -0.013402883
-0.02498746 0.008737295 0.00688063 0.018496597 -0.014377025 0.008697402 -0.00958288 -0.007640742
0.012529364 -0.023396041 0.017215703 0.01010505 -0.01580358 0.011054859 -0.007610169 0.00047272106
-0.009168121 -0.025672475 -0.0040495265 0.010551373 -0.0043483316 -0.013374317 -0.00042045588 0.003978186
-0.007687879 -0.020383 -0.014750033 -0.0054892413 0.007100166 0.019538466 -0.0012576863 0.0071107526
0.012637716 -0.012128221 -0.009891212 0.014654791 0.016884072 0.004724029 -0.020377899 0.012256625
-0.021753965 0.010382457 0.00104222 0.0062419535 -0.025209641 -0.009887405 0.008975631 0.0172199
-0.00813532 0.021126855 -0.0059604375 -0.015985666 -0.012228406 -0.00020690467 -0.005986512 0.009802273
-0.015373305 -0.008420928 -0.025096469 0.018883932 -0.005935762 -0.019961156 -0.0016801193 -0.00081793853
0.0055923355 -0.0043905973 0.013662396 -0.010187 -0.0098174 -0.008150202 0.00268356 0.018406807
-0.0021050845 0.017504664 0.018068483 -0.013620649 -0.0033000065 -0.013043578 0.008324015 -0.010420403
0.0053190575 -0.001230477 -0.01870186 -0.018810533 -0.025486602 -0.014924626 0.0052307104 -8.507326e-06
0.016643502 -0.023027655 -0.0025384224 -0.023713585 -0.0018884052 0.0065355822 -0.02483528 0.018051643
-0.011010221 0.01861283 -0.0062025147 0.01162533 0.019970838 -0.010989232 -0.007917141 0.010750911
-0.02282086 0.01215395 -0.018018331 0.01945238 -0.019861678 -0.014016903 0.0143867945 -0.01385111
0.0180469 0.014065752 0.019441107 -0.026247377 -0.0024172615 -0.010663359 0.003025785 -0.021441104
0.0064049107 -0.009596009 -0.020757059 -0.032572813 0.0035194512 -0.017138638 0.0105585065 -0.002799908
0.0013070727 -0.010359587 -0.009626546 -0.016135113 -0.030012826 0.0074808137 -0.02509937 0.005131744
-0.017737001 0.0054735313 0.012325528 -0.023279069 0.012120167 -0.0076649585 -0.027906891 0.00096801633
0.007923175 0.0151650505 -0.02788428 0.010964293 0.0069245747 0.013084951 0.0015244646 -0.024528205
0.005904358 0.011173441 -0.021098927 -0.017191311 0.008490666 0.010650154 0.011900146 0.01548276
-0.027471827 -0.018877322 -0.023495564 -0.0023534116 -0.008562816 -0.03504414 -0.018568547 -0.035112105
-0.038683217 0.006151718 -0.026803236 0.0016557224 -0.009378883 -0.02074996 -0.01705443 0.002700159
-0.019778542 0.0044152853 -0.004361675 -0.0010555767 -0.03807068 -0.028242784 -0.03688614 -0.021540843
-0.018488783 -0.0029853154 0.008360506 -0.0051647457 -0.033998176 -0.031012192 0.003385422 -0.014820944
-0.009996668 -0.028464993 -0.01805841 -0.00912447 -0.03206774 0.0011592916 5.683299e-05 -0.027869398
-0.024748843 -0.022931669 -0.011501715 -0.023370545 0.0055755163 -0.0411165 -0.030958137 -0.031290166
00000000: 63d4 b4bc 779a 543c 18ed 9bba ba95 ae3c
00000010: deb4 ff3a 2f2b d1bc 845b 393b 1d7b 9a3c
00000020: 0cc7 403c 42f3 893b 1bbd aebc 9b81 8dbc
00000030: f55a 663c 480e 98bc 1e2b 423b 2a6d c1bb
00000040: afec a53b acaa ccba cfcd afbc 71b6 50bc
00000050: 200e 973c 1c98 2139 4bb8 1b3c f7b8 7abc
00000060: 87fd 843c 552a 05bc 351a 2cbc ece2 1d3b
00000070: a5e4 3bbc e964 48bc ceca c3bb e7c4 59bb
00000080: 4777 83bc 3d24 cc3b d31d d3bc b296 4d3c
00000090: 09f5 a13c 5ddf 813a 6c9e 12bc 667d c7bc
000000a0: e08f 183c 6435 903c 1eb3 973c 1b5c 9438
000000b0: 8429 d83b ee42 b33c 52b1 063b c497 5bbc
000000c0: 80b2 ccbc df26 0f3c e876 e13b 2d86 973c
000000d0: 9d8d 6bbc 8c7f 0e3c 8301 1dbc 315f fabb
000000e0: f647 4d3c 0ea9 bfbc f207 8d3c a78f 253c
000000f0: 8276 81bc 701f 353c b95e f9bb 8cd7 f739
00000100: e335 16bc 154f d2bc e4b1 84bb aadf 2c3c
00000110: 737c 8ebb f41f 5bbc a270 dcb9 715b 823b
00000120: 9aea fbbb 40fa a6bc 1faa 71bc 18df b3bb
00000130: 82a8 e83b 220f a03c f3d8 a4ba 5101 e93b
00000140: 6c0e 4f3c 72b5 46bc c00e 22bc a61a 703c
00000150: 7750 8a3c 07cc 9a3b 8def a6bc 03d0 483c
00000160: 5f35 b2bc 2e1b 2a3c 1a9b 883a 4d89 cc3b
00000170: 7384 cebc c8fe 21bc 860e 133c bf10 8d3c
00000180: 014a 05bc 3a12 ad3c c64f c3bb 5ff4 82bc
00000190: a759 48bc 8df4 58b9 812a c4bb b699 203c
000001a0: 51e0 7bbc eff7 09bc 1c97 cdbc 7ab2 9a3c
000001b0: c880 c2bb 9485 a3bc 7337 dcba ed6a 56ba
000001c0: e93f b73b 00df 8fbb 3ed8 5f3c 60e7 26bc
000001d0: 29d9 20bc 6d88 05bc aade 2f3b dfc9 963c
000001e0: 75f5 09bb f165 8f3c 5b04 943c 2529 5fbc
000001f0: ec44 58bb bbb4 55bc 7361 083c 57ba 2abc
00000200: 7d4b ae3b f547 a1ba a534 99bc 8c18 9abc
00000210: 47c9 d0bc 6b86 74bc 6166 ab3b b0ba 0eb7
00000220: f457 883c 7ea4 bcbc a95b 26bb fe42 c2bc
00000230: 5d84 f7ba 7028 d63b 5b73 cbbc 0ae1 933c
00000240: 3764 34bc ef79 983c 773e cbbb 2b78 3e3c
00000250: e299 a33c 2e0c 34bc e5b6 01bc 9724 303c
00000260: d0f2 babc 5c21 473c 2e9b 93bc 995a 9f3c
00000270: f5b4 a2bc 27a7 65bc 97b6 6b3c c4ef 62bc
00000280: 18d7 933c 0a74 663c f542 9f3c bd04 d7bc
00000290: eb6a 1ebb 5fb5 2ebc 404c 463b 41a5 afbc
000002a0: 49e0 d13b 9438 1dbc b50a aabc 126b 05bd
000002b0: 98a6 663b 5466 8cbc 96fd 2c3c a97e 37bb
000002c0: 1552 ab3a 42bb 29bc a9b8 1dbc c92d 84bc
000002d0: 75dd f5bc 9d21 f53b 329d cdbc 3028 a83b
000002e0: 304d 91bc 4f5b b33b 03f1 493c bfb3 bebc
000002f0: aa93 463c 552a fbbb fe9c e4bc 7ac2 7d3a
00000300: 34d0 013c d576 783c 936d e4bc 94a3 333c
00000310: 8be7 e23b 4362 563c 8bd0 c73a 60ef c8bc
00000320: 5879 c13b cf10 373c a8d7 acbc cbd4 8cbc
00000330: 6f1c 0b3c fc7d 2e3c d4f8 423c 67ab 7d3c
00000340: 990c e1bc 9da4 9abc c579 c0bc b23b 1abb
00000350: 0e4b 0cbc 728a 0fbd 111d 98bc b6d1 0fbd
00000360: 4b72 1ebd 5a94 c93b 7692 dbbc d304 d93a
00000370: e3a9 19bc d2fb a9bc bbb5 8bbc 27f5 303b
00000380: 9c06 a2bc 19ae 903b 62ec 8ebb 475b 8aba
00000390: 00f0 1bbd 695d e7bc ec15 17bd 6c76 b0bc
000003a0: ca75 97bc 48a5 43bb 81fa 083c 073d a9bb
000003b0: ac41 0bbd 480d febc f5dd 5d3b 8bd3 72bc
000003c0: 11c9 23bc 6b2f e9bc 3bef 93bc cd7e 15bc
000003d0: 7659 03bd 5ff3 973a f55f 6e38 5d4e e4bc
000003e0: 16be cabc 32db bbbc b071 3cbc 9673 bfbc
000003f0: d2b2 b63b c669 28bd eb9b fdbc 1e2a 00bd

classifier.1.bias f4 [3]
0.007523754 -0.008375342 -0.020419564
00000000: d389 f63b bb38 09bc ee46 a7bc
